{"format": "graph-model", "generatedBy": "2.19.0", "convertedBy": "TensorFlow.js Converter v4.22.0", "signature": {"outputs": {"Identity:0": {"name": "Identity:0"}}}, "modelTopology": {"node": [{"name": "ConstantFolding/model_332/tf.math.divide/truediv_recip", "op": "Const", "attr": {"value": {"tensor": {"dtype": "DT_FLOAT", "tensorShape": {}}}, "dtype": {"type": "DT_FLOAT"}}}, {"name": "model_332/tf.strided_slice_19/ones_like/tensor", "op": "Const", "attr": {"value": {"tensor": {"dtype": "DT_INT64", "tensorShape": {"dim": [{"size": "3"}]}}}, "dtype": {"type": "DT_INT64"}}}, {"name": "model_332/tf.strided_slice_19/StridedSlice/end", "op": "Const", "attr": {"value": {"tensor": {"dtype": "DT_INT64", "tensorShape": {"dim": [{"size": "3"}]}}}, "dtype": {"type": "DT_INT64"}}}, {"name": "model_332/tf.strided_slice_19/ones_like", "op": "Const", "attr": {"value": {"tensor": {"dtype": "DT_INT64", "tensorShape": {"dim": [{"size": "3"}]}}}, "dtype": {"type": "DT_INT64"}}}, {"name": "model_332/tf.math.add_166/Add/y", "op": "Const", "attr": {"value": {"tensor": {"dtype": "DT_FLOAT", "tensorShape": {"dim": [{"size": "1"}, {"size": "2"}, {"size": "21504"}]}}}, "dtype": {"type": "DT_FLOAT"}}}, {"name": "model_332/68246", "op": "Const", "attr": {"value": {"tensor": {"dtype": "DT_FLOAT", "tensorShape": {"dim": [{"size": "1"}, {"size": "2"}, {"size": "21504"}]}}}, "dtype": {"type": "DT_FLOAT"}}}, {"name": "model_332/tf.strided_slice_16/StridedSlice/begin", "op": "Const", "attr": {"value": {"tensor": {"dtype": "DT_INT64", "tensorShape": {"dim": [{"size": "3"}]}}}, "dtype": {"type": "DT_INT64"}}}, {"name": "model_332/tf.strided_slice_16/StridedSlice/end", "op": "Const", "attr": {"value": {"tensor": {"dtype": "DT_INT64", "tensorShape": {"dim": [{"size": "3"}]}}}, "dtype": {"type": "DT_INT64"}}}, {"name": "model_332/tf.strided_slice_16/StridedSlice/strides", "op": "Const", "attr": {"value": {"tensor": {"dtype": "DT_INT64", "tensorShape": {"dim": [{"size": "3"}]}}}, "dtype": {"type": "DT_INT64"}}}, {"name": "model_332/tf.reshape_85/Reshape/shape", "op": "Const", "attr": {"value": {"tensor": {"dtype": "DT_INT32", "tensorShape": {"dim": [{"size": "4"}]}}}, "dtype": {"type": "DT_INT32"}}}, {"name": "model_332/tf.compat.v1.transpose_3511/transpose/perm", "op": "Const", "attr": {"value": {"tensor": {"dtype": "DT_INT32", "tensorShape": {"dim": [{"size": "4"}]}}}, "dtype": {"type": "DT_INT32"}}}, {"name": "model_332/tf.compat.v1.transpose_3512/transpose/perm", "op": "Const", "attr": {"value": {"tensor": {"dtype": "DT_INT32", "tensorShape": {"dim": [{"size": "4"}]}}}, "dtype": {"type": "DT_INT32"}}}, {"name": "model_332/tf.nn.convolution_154/convolution/filter", "op": "Const", "attr": {"value": {"tensor": {"dtype": "DT_FLOAT", "tensorShape": {"dim": [{"size": "1"}, {"size": "1"}, {"size": "16"}, {"size": "1"}]}}}, "dtype": {"type": "DT_FLOAT"}}}, {"name": "model_332/tf.compat.v1.transpose_3517/transpose/perm", "op": "Const", "attr": {"value": {"tensor": {"dtype": "DT_INT32", "tensorShape": {"dim": [{"size": "4"}]}}}, "dtype": {"type": "DT_INT32"}}}, {"name": "model_332/tf.reshape_111/Reshape/shape", "op": "Const", "attr": {"value": {"tensor": {"dtype": "DT_INT32", "tensorShape": {"dim": [{"size": "3"}]}}}, "dtype": {"type": "DT_INT32"}}}, {"name": "model_332/tf.strided_slice_18/ones_like/tensor", "op": "Const", "attr": {"value": {"tensor": {"dtype": "DT_INT64", "tensorShape": {"dim": [{"size": "3"}]}}}, "dtype": {"type": "DT_INT64"}}}, {"name": "model_332/tf.strided_slice_18/StridedSlice/end", "op": "Const", "attr": {"value": {"tensor": {"dtype": "DT_INT64", "tensorShape": {"dim": [{"size": "3"}]}}}, "dtype": {"type": "DT_INT64"}}}, {"name": "model_332/tf.strided_slice_18/ones_like", "op": "Const", "attr": {"value": {"tensor": {"dtype": "DT_INT64", "tensorShape": {"dim": [{"size": "3"}]}}}, "dtype": {"type": "DT_INT64"}}}, {"name": "model_332/tf.concat_1752/concat/axis", "op": "Const", "attr": {"value": {"tensor": {"dtype": "DT_INT32", "tensorShape": {}}}, "dtype": {"type": "DT_INT32"}}}, {"name": "model_332/tf.math.multiply_252/Mul/y", "op": "Const", "attr": {"value": {"tensor": {"dtype": "DT_FLOAT", "tensorShape": {"dim": [{"size": "1"}, {"size": "1"}, {"size": "21504"}]}}}, "dtype": {"type": "DT_FLOAT"}}}, {"name": "model_332/tf.nn.convolution_85/convolution/filter", "op": "Const", "attr": {"value": {"tensor": {"dtype": "DT_FLOAT", "tensorShape": {"dim": [{"size": "3"}, {"size": "3"}, {"size": "64"}, {"size": "64"}]}}}, "dtype": {"type": "DT_FLOAT"}}}, {"name": "model_332/tf.math.add_97/Add/y", "op": "Const", "attr": {"value": {"tensor": {"dtype": "DT_FLOAT", "tensorShape": {"dim": [{"size": "64"}]}}}, "dtype": {"type": "DT_FLOAT"}}}, {"name": "model_332/tf.nn.convolution_87/convolution/filter", "op": "Const", "attr": {"value": {"tensor": {"dtype": "DT_FLOAT", "tensorShape": {"dim": [{"size": "3"}, {"size": "3"}, {"size": "64"}, {"size": "64"}]}}}, "dtype": {"type": "DT_FLOAT"}}}, {"name": "model_332/tf.math.add_99/Add/y", "op": "Const", "attr": {"value": {"tensor": {"dtype": "DT_FLOAT", "tensorShape": {"dim": [{"size": "64"}]}}}, "dtype": {"type": "DT_FLOAT"}}}, {"name": "model_332/tf.nn.convolution_90/convolution/filter", "op": "Const", "attr": {"value": {"tensor": {"dtype": "DT_FLOAT", "tensorShape": {"dim": [{"size": "1"}, {"size": "1"}, {"size": "64"}, {"size": "64"}]}}}, "dtype": {"type": "DT_FLOAT"}}}, {"name": "model_332/tf.math.add_102/Add/y", "op": "Const", "attr": {"value": {"tensor": {"dtype": "DT_FLOAT", "tensorShape": {"dim": [{"size": "64"}]}}}, "dtype": {"type": "DT_FLOAT"}}}, {"name": "model_332/tf.nn.convolution_86/convolution/filter", "op": "Const", "attr": {"value": {"tensor": {"dtype": "DT_FLOAT", "tensorShape": {"dim": [{"size": "3"}, {"size": "3"}, {"size": "64"}, {"size": "64"}]}}}, "dtype": {"type": "DT_FLOAT"}}}, {"name": "model_332/tf.math.add_98/Add/y", "op": "Const", "attr": {"value": {"tensor": {"dtype": "DT_FLOAT", "tensorShape": {"dim": [{"size": "64"}]}}}, "dtype": {"type": "DT_FLOAT"}}}, {"name": "model_332/tf.nn.convolution_88/convolution/filter", "op": "Const", "attr": {"value": {"tensor": {"dtype": "DT_FLOAT", "tensorShape": {"dim": [{"size": "3"}, {"size": "3"}, {"size": "64"}, {"size": "64"}]}}}, "dtype": {"type": "DT_FLOAT"}}}, {"name": "model_332/tf.math.add_100/Add/y", "op": "Const", "attr": {"value": {"tensor": {"dtype": "DT_FLOAT", "tensorShape": {"dim": [{"size": "64"}]}}}, "dtype": {"type": "DT_FLOAT"}}}, {"name": "model_332/tf.nn.convolution_91/convolution/filter", "op": "Const", "attr": {"value": {"tensor": {"dtype": "DT_FLOAT", "tensorShape": {"dim": [{"size": "1"}, {"size": "1"}, {"size": "64"}, {"size": "4"}]}}}, "dtype": {"type": "DT_FLOAT"}}}, {"name": "model_332/tf.math.add_103/Add/y", "op": "Const", "attr": {"value": {"tensor": {"dtype": "DT_FLOAT", "tensorShape": {"dim": [{"size": "4"}]}}}, "dtype": {"type": "DT_FLOAT"}}}, {"name": "model_332/tf.concat_1164/concat/axis", "op": "Const", "attr": {"value": {"tensor": {"dtype": "DT_INT32", "tensorShape": {}}}, "dtype": {"type": "DT_INT32"}}}, {"name": "model_332/tf.compat.v1.transpose_2282/transpose/perm", "op": "Const", "attr": {"value": {"tensor": {"dtype": "DT_INT32", "tensorShape": {"dim": [{"size": "4"}]}}}, "dtype": {"type": "DT_INT32"}}}, {"name": "model_332/tf.reshape_25/Reshape/shape", "op": "Const", "attr": {"value": {"tensor": {"dtype": "DT_INT32", "tensorShape": {"dim": [{"size": "3"}]}}}, "dtype": {"type": "DT_INT32"}}}, {"name": "model_332/tf.nn.convolution_110/convolution/filter", "op": "Const", "attr": {"value": {"tensor": {"dtype": "DT_FLOAT", "tensorShape": {"dim": [{"size": "3"}, {"size": "3"}, {"size": "128"}, {"size": "64"}]}}}, "dtype": {"type": "DT_FLOAT"}}}, {"name": "model_332/tf.math.add_122/Add/y", "op": "Const", "attr": {"value": {"tensor": {"dtype": "DT_FLOAT", "tensorShape": {"dim": [{"size": "64"}]}}}, "dtype": {"type": "DT_FLOAT"}}}, {"name": "model_332/tf.nn.convolution_119/convolution/filter", "op": "Const", "attr": {"value": {"tensor": {"dtype": "DT_FLOAT", "tensorShape": {"dim": [{"size": "3"}, {"size": "3"}, {"size": "64"}, {"size": "64"}]}}}, "dtype": {"type": "DT_FLOAT"}}}, {"name": "model_332/tf.math.add_131/Add/y", "op": "Const", "attr": {"value": {"tensor": {"dtype": "DT_FLOAT", "tensorShape": {"dim": [{"size": "64"}]}}}, "dtype": {"type": "DT_FLOAT"}}}, {"name": "model_332/tf.nn.convolution_136/convolution/filter", "op": "Const", "attr": {"value": {"tensor": {"dtype": "DT_FLOAT", "tensorShape": {"dim": [{"size": "1"}, {"size": "1"}, {"size": "64"}, {"size": "64"}]}}}, "dtype": {"type": "DT_FLOAT"}}}, {"name": "model_332/tf.math.add_148/Add/y", "op": "Const", "attr": {"value": {"tensor": {"dtype": "DT_FLOAT", "tensorShape": {"dim": [{"size": "64"}]}}}, "dtype": {"type": "DT_FLOAT"}}}, {"name": "model_332/tf.nn.convolution_111/convolution/filter", "op": "Const", "attr": {"value": {"tensor": {"dtype": "DT_FLOAT", "tensorShape": {"dim": [{"size": "3"}, {"size": "3"}, {"size": "128"}, {"size": "64"}]}}}, "dtype": {"type": "DT_FLOAT"}}}, {"name": "model_332/tf.math.add_123/Add/y", "op": "Const", "attr": {"value": {"tensor": {"dtype": "DT_FLOAT", "tensorShape": {"dim": [{"size": "64"}]}}}, "dtype": {"type": "DT_FLOAT"}}}, {"name": "model_332/tf.nn.convolution_127/convolution/filter", "op": "Const", "attr": {"value": {"tensor": {"dtype": "DT_FLOAT", "tensorShape": {"dim": [{"size": "3"}, {"size": "3"}, {"size": "64"}, {"size": "64"}]}}}, "dtype": {"type": "DT_FLOAT"}}}, {"name": "model_332/tf.math.add_139/Add/y", "op": "Const", "attr": {"value": {"tensor": {"dtype": "DT_FLOAT", "tensorShape": {"dim": [{"size": "64"}]}}}, "dtype": {"type": "DT_FLOAT"}}}, {"name": "model_332/tf.nn.convolution_144/convolution/filter", "op": "Const", "attr": {"value": {"tensor": {"dtype": "DT_FLOAT", "tensorShape": {"dim": [{"size": "1"}, {"size": "1"}, {"size": "64"}, {"size": "4"}]}}}, "dtype": {"type": "DT_FLOAT"}}}, {"name": "model_332/tf.math.add_156/Add/y", "op": "Const", "attr": {"value": {"tensor": {"dtype": "DT_FLOAT", "tensorShape": {"dim": [{"size": "4"}]}}}, "dtype": {"type": "DT_FLOAT"}}}, {"name": "model_332/tf.concat_1744/concat/axis", "op": "Const", "attr": {"value": {"tensor": {"dtype": "DT_INT32", "tensorShape": {}}}, "dtype": {"type": "DT_INT32"}}}, {"name": "model_332/tf.compat.v1.transpose_3441/transpose/perm", "op": "Const", "attr": {"value": {"tensor": {"dtype": "DT_INT32", "tensorShape": {"dim": [{"size": "4"}]}}}, "dtype": {"type": "DT_INT32"}}}, {"name": "model_332/tf.reshape_51/Reshape/shape", "op": "Const", "attr": {"value": {"tensor": {"dtype": "DT_INT32", "tensorShape": {"dim": [{"size": "3"}]}}}, "dtype": {"type": "DT_INT32"}}}, {"name": "model_332/tf.nn.convolution_148/convolution/filter", "op": "Const", "attr": {"value": {"tensor": {"dtype": "DT_FLOAT", "tensorShape": {"dim": [{"size": "3"}, {"size": "3"}, {"size": "256"}, {"size": "64"}]}}}, "dtype": {"type": "DT_FLOAT"}}}, {"name": "model_332/tf.math.add_160/Add/y", "op": "Const", "attr": {"value": {"tensor": {"dtype": "DT_FLOAT", "tensorShape": {"dim": [{"size": "64"}]}}}, "dtype": {"type": "DT_FLOAT"}}}, {"name": "model_332/tf.nn.convolution_150/convolution/filter", "op": "Const", "attr": {"value": {"tensor": {"dtype": "DT_FLOAT", "tensorShape": {"dim": [{"size": "3"}, {"size": "3"}, {"size": "64"}, {"size": "64"}]}}}, "dtype": {"type": "DT_FLOAT"}}}, {"name": "model_332/tf.math.add_162/Add/y", "op": "Const", "attr": {"value": {"tensor": {"dtype": "DT_FLOAT", "tensorShape": {"dim": [{"size": "64"}]}}}, "dtype": {"type": "DT_FLOAT"}}}, {"name": "model_332/tf.nn.convolution_152/convolution/filter", "op": "Const", "attr": {"value": {"tensor": {"dtype": "DT_FLOAT", "tensorShape": {"dim": [{"size": "1"}, {"size": "1"}, {"size": "64"}, {"size": "64"}]}}}, "dtype": {"type": "DT_FLOAT"}}}, {"name": "model_332/tf.math.add_164/Add/y", "op": "Const", "attr": {"value": {"tensor": {"dtype": "DT_FLOAT", "tensorShape": {"dim": [{"size": "64"}]}}}, "dtype": {"type": "DT_FLOAT"}}}, {"name": "model_332/tf.strided_slice_14/ones_like/tensor", "op": "Const", "attr": {"value": {"tensor": {"dtype": "DT_INT64", "tensorShape": {"dim": [{"size": "4"}]}}}, "dtype": {"type": "DT_INT64"}}}, {"name": "model_332/tf.strided_slice_14/StridedSlice/end", "op": "Const", "attr": {"value": {"tensor": {"dtype": "DT_INT64", "tensorShape": {"dim": [{"size": "4"}]}}}, "dtype": {"type": "DT_INT64"}}}, {"name": "model_332/tf.strided_slice_14/ones_like", "op": "Const", "attr": {"value": {"tensor": {"dtype": "DT_INT64", "tensorShape": {"dim": [{"size": "4"}]}}}, "dtype": {"type": "DT_INT64"}}}, {"name": "model_332/tf.strided_slice_12/ones_like/tensor", "op": "Const", "attr": {"value": {"tensor": {"dtype": "DT_INT64", "tensorShape": {"dim": [{"size": "4"}]}}}, "dtype": {"type": "DT_INT64"}}}, {"name": "model_332/tf.strided_slice_12/StridedSlice/end", "op": "Const", "attr": {"value": {"tensor": {"dtype": "DT_INT64", "tensorShape": {"dim": [{"size": "4"}]}}}, "dtype": {"type": "DT_INT64"}}}, {"name": "model_332/tf.strided_slice_12/ones_like", "op": "Const", "attr": {"value": {"tensor": {"dtype": "DT_INT64", "tensorShape": {"dim": [{"size": "4"}]}}}, "dtype": {"type": "DT_INT64"}}}, {"name": "model_332/tf.strided_slice_10/ones_like/tensor", "op": "Const", "attr": {"value": {"tensor": {"dtype": "DT_INT64", "tensorShape": {"dim": [{"size": "4"}]}}}, "dtype": {"type": "DT_INT64"}}}, {"name": "model_332/tf.strided_slice_10/StridedSlice/end", "op": "Const", "attr": {"value": {"tensor": {"dtype": "DT_INT64", "tensorShape": {"dim": [{"size": "4"}]}}}, "dtype": {"type": "DT_INT64"}}}, {"name": "model_332/tf.strided_slice_10/ones_like", "op": "Const", "attr": {"value": {"tensor": {"dtype": "DT_INT64", "tensorShape": {"dim": [{"size": "4"}]}}}, "dtype": {"type": "DT_INT64"}}}, {"name": "model_332/tf.image.resize_1/resize/size", "op": "Const", "attr": {"value": {"tensor": {"dtype": "DT_INT32", "tensorShape": {"dim": [{"size": "2"}]}}}, "dtype": {"type": "DT_INT32"}}}, {"name": "model_332/tf.concat_584/concat/axis", "op": "Const", "attr": {"value": {"tensor": {"dtype": "DT_INT32", "tensorShape": {}}}, "dtype": {"type": "DT_INT32"}}}, {"name": "model_332/tf.nn.convolution_80/convolution/filter", "op": "Const", "attr": {"value": {"tensor": {"dtype": "DT_FLOAT", "tensorShape": {"dim": [{"size": "1"}, {"size": "1"}, {"size": "192"}, {"size": "64"}]}}}, "dtype": {"type": "DT_FLOAT"}}}, {"name": "model_332/tf.math.add_92/Add/y", "op": "Const", "attr": {"value": {"tensor": {"dtype": "DT_FLOAT", "tensorShape": {"dim": [{"size": "64"}]}}}, "dtype": {"type": "DT_FLOAT"}}}, {"name": "model_332/tf.strided_slice_11/ones_like/tensor", "op": "Const", "attr": {"value": {"tensor": {"dtype": "DT_INT64", "tensorShape": {"dim": [{"size": "4"}]}}}, "dtype": {"type": "DT_INT64"}}}, {"name": "model_332/tf.strided_slice_11/StridedSlice/end", "op": "Const", "attr": {"value": {"tensor": {"dtype": "DT_INT64", "tensorShape": {"dim": [{"size": "4"}]}}}, "dtype": {"type": "DT_INT64"}}}, {"name": "model_332/tf.strided_slice_11/ones_like", "op": "Const", "attr": {"value": {"tensor": {"dtype": "DT_INT64", "tensorShape": {"dim": [{"size": "4"}]}}}, "dtype": {"type": "DT_INT64"}}}, {"name": "model_332/tf.nn.convolution_81/convolution/filter", "op": "Const", "attr": {"value": {"tensor": {"dtype": "DT_FLOAT", "tensorShape": {"dim": [{"size": "3"}, {"size": "3"}, {"size": "32"}, {"size": "32"}]}}}, "dtype": {"type": "DT_FLOAT"}}}, {"name": "model_332/tf.math.add_93/Add/y", "op": "Const", "attr": {"value": {"tensor": {"dtype": "DT_FLOAT", "tensorShape": {"dim": [{"size": "32"}]}}}, "dtype": {"type": "DT_FLOAT"}}}, {"name": "model_332/tf.nn.convolution_82/convolution/filter", "op": "Const", "attr": {"value": {"tensor": {"dtype": "DT_FLOAT", "tensorShape": {"dim": [{"size": "3"}, {"size": "3"}, {"size": "32"}, {"size": "32"}]}}}, "dtype": {"type": "DT_FLOAT"}}}, {"name": "model_332/tf.math.add_94/Add/y", "op": "Const", "attr": {"value": {"tensor": {"dtype": "DT_FLOAT", "tensorShape": {"dim": [{"size": "32"}]}}}, "dtype": {"type": "DT_FLOAT"}}}, {"name": "model_332/tf.concat_585/concat/axis", "op": "Const", "attr": {"value": {"tensor": {"dtype": "DT_INT32", "tensorShape": {}}}, "dtype": {"type": "DT_INT32"}}}, {"name": "model_332/tf.nn.convolution_83/convolution/filter", "op": "Const", "attr": {"value": {"tensor": {"dtype": "DT_FLOAT", "tensorShape": {"dim": [{"size": "1"}, {"size": "1"}, {"size": "96"}, {"size": "64"}]}}}, "dtype": {"type": "DT_FLOAT"}}}, {"name": "model_332/tf.math.add_95/Add/y", "op": "Const", "attr": {"value": {"tensor": {"dtype": "DT_FLOAT", "tensorShape": {"dim": [{"size": "64"}]}}}, "dtype": {"type": "DT_FLOAT"}}}, {"name": "model_332/tf.compat.v1.pad_5/Pad/paddings", "op": "Const", "attr": {"value": {"tensor": {"dtype": "DT_INT32", "tensorShape": {"dim": [{"size": "4"}, {"size": "2"}]}}}, "dtype": {"type": "DT_INT32"}}}, {"name": "model_332/tf.nn.convolution_84/convolution/filter", "op": "Const", "attr": {"value": {"tensor": {"dtype": "DT_FLOAT", "tensorShape": {"dim": [{"size": "3"}, {"size": "3"}, {"size": "64"}, {"size": "64"}]}}}, "dtype": {"type": "DT_FLOAT"}}}, {"name": "model_332/tf.math.add_96/Add/y", "op": "Const", "attr": {"value": {"tensor": {"dtype": "DT_FLOAT", "tensorShape": {"dim": [{"size": "64"}]}}}, "dtype": {"type": "DT_FLOAT"}}}, {"name": "model_332/tf.strided_slice_8/ones_like/tensor", "op": "Const", "attr": {"value": {"tensor": {"dtype": "DT_INT64", "tensorShape": {"dim": [{"size": "4"}]}}}, "dtype": {"type": "DT_INT64"}}}, {"name": "model_332/tf.strided_slice_8/StridedSlice/end", "op": "Const", "attr": {"value": {"tensor": {"dtype": "DT_INT64", "tensorShape": {"dim": [{"size": "4"}]}}}, "dtype": {"type": "DT_INT64"}}}, {"name": "model_332/tf.strided_slice_8/ones_like", "op": "Const", "attr": {"value": {"tensor": {"dtype": "DT_INT64", "tensorShape": {"dim": [{"size": "4"}]}}}, "dtype": {"type": "DT_INT64"}}}, {"name": "model_332/tf.image.resize/resize/size", "op": "Const", "attr": {"value": {"tensor": {"dtype": "DT_INT32", "tensorShape": {"dim": [{"size": "2"}]}}}, "dtype": {"type": "DT_INT32"}}}, {"name": "model_332/tf.concat_5/concat/axis", "op": "Const", "attr": {"value": {"tensor": {"dtype": "DT_INT32", "tensorShape": {}}}, "dtype": {"type": "DT_INT32"}}}, {"name": "model_332/tf.nn.convolution_62/convolution/filter", "op": "Const", "attr": {"value": {"tensor": {"dtype": "DT_FLOAT", "tensorShape": {"dim": [{"size": "1"}, {"size": "1"}, {"size": "384"}, {"size": "128"}]}}}, "dtype": {"type": "DT_FLOAT"}}}, {"name": "model_332/tf.math.add_74/Add/y", "op": "Const", "attr": {"value": {"tensor": {"dtype": "DT_FLOAT", "tensorShape": {"dim": [{"size": "128"}]}}}, "dtype": {"type": "DT_FLOAT"}}}, {"name": "model_332/tf.strided_slice_9/ones_like/tensor", "op": "Const", "attr": {"value": {"tensor": {"dtype": "DT_INT64", "tensorShape": {"dim": [{"size": "4"}]}}}, "dtype": {"type": "DT_INT64"}}}, {"name": "model_332/tf.strided_slice_9/StridedSlice/end", "op": "Const", "attr": {"value": {"tensor": {"dtype": "DT_INT64", "tensorShape": {"dim": [{"size": "4"}]}}}, "dtype": {"type": "DT_INT64"}}}, {"name": "model_332/tf.strided_slice_9/ones_like", "op": "Const", "attr": {"value": {"tensor": {"dtype": "DT_INT64", "tensorShape": {"dim": [{"size": "4"}]}}}, "dtype": {"type": "DT_INT64"}}}, {"name": "model_332/tf.nn.convolution_70/convolution/filter", "op": "Const", "attr": {"value": {"tensor": {"dtype": "DT_FLOAT", "tensorShape": {"dim": [{"size": "3"}, {"size": "3"}, {"size": "64"}, {"size": "64"}]}}}, "dtype": {"type": "DT_FLOAT"}}}, {"name": "model_332/tf.math.add_82/Add/y", "op": "Const", "attr": {"value": {"tensor": {"dtype": "DT_FLOAT", "tensorShape": {"dim": [{"size": "64"}]}}}, "dtype": {"type": "DT_FLOAT"}}}, {"name": "model_332/tf.nn.convolution_78/convolution/filter", "op": "Const", "attr": {"value": {"tensor": {"dtype": "DT_FLOAT", "tensorShape": {"dim": [{"size": "3"}, {"size": "3"}, {"size": "64"}, {"size": "64"}]}}}, "dtype": {"type": "DT_FLOAT"}}}, {"name": "model_332/tf.math.add_90/Add/y", "op": "Const", "attr": {"value": {"tensor": {"dtype": "DT_FLOAT", "tensorShape": {"dim": [{"size": "64"}]}}}, "dtype": {"type": "DT_FLOAT"}}}, {"name": "model_332/tf.concat_6/concat/axis", "op": "Const", "attr": {"value": {"tensor": {"dtype": "DT_INT32", "tensorShape": {}}}, "dtype": {"type": "DT_INT32"}}}, {"name": "model_332/tf.nn.convolution_79/convolution/filter", "op": "Const", "attr": {"value": {"tensor": {"dtype": "DT_FLOAT", "tensorShape": {"dim": [{"size": "1"}, {"size": "1"}, {"size": "192"}, {"size": "128"}]}}}, "dtype": {"type": "DT_FLOAT"}}}, {"name": "model_332/tf.math.add_91/Add/y", "op": "Const", "attr": {"value": {"tensor": {"dtype": "DT_FLOAT", "tensorShape": {"dim": [{"size": "128"}]}}}, "dtype": {"type": "DT_FLOAT"}}}, {"name": "model_332/tf.concat_1163/concat/axis", "op": "Const", "attr": {"value": {"tensor": {"dtype": "DT_INT32", "tensorShape": {}}}, "dtype": {"type": "DT_INT32"}}}, {"name": "model_332/tf.nn.convolution_89/convolution/filter", "op": "Const", "attr": {"value": {"tensor": {"dtype": "DT_FLOAT", "tensorShape": {"dim": [{"size": "1"}, {"size": "1"}, {"size": "192"}, {"size": "128"}]}}}, "dtype": {"type": "DT_FLOAT"}}}, {"name": "model_332/tf.math.add_101/Add/y", "op": "Const", "attr": {"value": {"tensor": {"dtype": "DT_FLOAT", "tensorShape": {"dim": [{"size": "128"}]}}}, "dtype": {"type": "DT_FLOAT"}}}, {"name": "model_332/tf.strided_slice_13/ones_like/tensor", "op": "Const", "attr": {"value": {"tensor": {"dtype": "DT_INT64", "tensorShape": {"dim": [{"size": "4"}]}}}, "dtype": {"type": "DT_INT64"}}}, {"name": "model_332/tf.strided_slice_13/StridedSlice/end", "op": "Const", "attr": {"value": {"tensor": {"dtype": "DT_INT64", "tensorShape": {"dim": [{"size": "4"}]}}}, "dtype": {"type": "DT_INT64"}}}, {"name": "model_332/tf.strided_slice_13/ones_like", "op": "Const", "attr": {"value": {"tensor": {"dtype": "DT_INT64", "tensorShape": {"dim": [{"size": "4"}]}}}, "dtype": {"type": "DT_INT64"}}}, {"name": "model_332/tf.nn.convolution_99/convolution/filter", "op": "Const", "attr": {"value": {"tensor": {"dtype": "DT_FLOAT", "tensorShape": {"dim": [{"size": "3"}, {"size": "3"}, {"size": "64"}, {"size": "64"}]}}}, "dtype": {"type": "DT_FLOAT"}}}, {"name": "model_332/tf.math.add_111/Add/y", "op": "Const", "attr": {"value": {"tensor": {"dtype": "DT_FLOAT", "tensorShape": {"dim": [{"size": "64"}]}}}, "dtype": {"type": "DT_FLOAT"}}}, {"name": "model_332/tf.nn.convolution_107/convolution/filter", "op": "Const", "attr": {"value": {"tensor": {"dtype": "DT_FLOAT", "tensorShape": {"dim": [{"size": "3"}, {"size": "3"}, {"size": "64"}, {"size": "64"}]}}}, "dtype": {"type": "DT_FLOAT"}}}, {"name": "model_332/tf.math.add_119/Add/y", "op": "Const", "attr": {"value": {"tensor": {"dtype": "DT_FLOAT", "tensorShape": {"dim": [{"size": "64"}]}}}, "dtype": {"type": "DT_FLOAT"}}}, {"name": "model_332/tf.concat_1165/concat/axis", "op": "Const", "attr": {"value": {"tensor": {"dtype": "DT_INT32", "tensorShape": {}}}, "dtype": {"type": "DT_INT32"}}}, {"name": "model_332/tf.nn.convolution_108/convolution/filter", "op": "Const", "attr": {"value": {"tensor": {"dtype": "DT_FLOAT", "tensorShape": {"dim": [{"size": "1"}, {"size": "1"}, {"size": "192"}, {"size": "128"}]}}}, "dtype": {"type": "DT_FLOAT"}}}, {"name": "model_332/tf.math.add_120/Add/y", "op": "Const", "attr": {"value": {"tensor": {"dtype": "DT_FLOAT", "tensorShape": {"dim": [{"size": "128"}]}}}, "dtype": {"type": "DT_FLOAT"}}}, {"name": "model_332/tf.compat.v1.pad_6/Pad/paddings", "op": "Const", "attr": {"value": {"tensor": {"dtype": "DT_INT32", "tensorShape": {"dim": [{"size": "4"}, {"size": "2"}]}}}, "dtype": {"type": "DT_INT32"}}}, {"name": "model_332/tf.nn.convolution_109/convolution/filter", "op": "Const", "attr": {"value": {"tensor": {"dtype": "DT_FLOAT", "tensorShape": {"dim": [{"size": "3"}, {"size": "3"}, {"size": "128"}, {"size": "128"}]}}}, "dtype": {"type": "DT_FLOAT"}}}, {"name": "model_332/tf.math.add_121/Add/y", "op": "Const", "attr": {"value": {"tensor": {"dtype": "DT_FLOAT", "tensorShape": {"dim": [{"size": "128"}]}}}, "dtype": {"type": "DT_FLOAT"}}}, {"name": "model_332/tf.strided_slice_6/ones_like/tensor", "op": "Const", "attr": {"value": {"tensor": {"dtype": "DT_INT64", "tensorShape": {"dim": [{"size": "4"}]}}}, "dtype": {"type": "DT_INT64"}}}, {"name": "model_332/tf.strided_slice_6/StridedSlice/end", "op": "Const", "attr": {"value": {"tensor": {"dtype": "DT_INT64", "tensorShape": {"dim": [{"size": "4"}]}}}, "dtype": {"type": "DT_INT64"}}}, {"name": "model_332/tf.strided_slice_6/ones_like", "op": "Const", "attr": {"value": {"tensor": {"dtype": "DT_INT64", "tensorShape": {"dim": [{"size": "4"}]}}}, "dtype": {"type": "DT_INT64"}}}, {"name": "model_332/tf.strided_slice_4/ones_like/tensor", "op": "Const", "attr": {"value": {"tensor": {"dtype": "DT_INT64", "tensorShape": {"dim": [{"size": "4"}]}}}, "dtype": {"type": "DT_INT64"}}}, {"name": "model_332/tf.strided_slice_4/StridedSlice/end", "op": "Const", "attr": {"value": {"tensor": {"dtype": "DT_INT64", "tensorShape": {"dim": [{"size": "4"}]}}}, "dtype": {"type": "DT_INT64"}}}, {"name": "model_332/tf.strided_slice_4/ones_like", "op": "Const", "attr": {"value": {"tensor": {"dtype": "DT_INT64", "tensorShape": {"dim": [{"size": "4"}]}}}, "dtype": {"type": "DT_INT64"}}}, {"name": "model_332/tf.strided_slice_2/ones_like/tensor", "op": "Const", "attr": {"value": {"tensor": {"dtype": "DT_INT64", "tensorShape": {"dim": [{"size": "4"}]}}}, "dtype": {"type": "DT_INT64"}}}, {"name": "model_332/tf.strided_slice_2/StridedSlice/end", "op": "Const", "attr": {"value": {"tensor": {"dtype": "DT_INT64", "tensorShape": {"dim": [{"size": "4"}]}}}, "dtype": {"type": "DT_INT64"}}}, {"name": "model_332/tf.strided_slice_2/ones_like", "op": "Const", "attr": {"value": {"tensor": {"dtype": "DT_INT64", "tensorShape": {"dim": [{"size": "4"}]}}}, "dtype": {"type": "DT_INT64"}}}, {"name": "model_332/tf.strided_slice/ones_like/tensor", "op": "Const", "attr": {"value": {"tensor": {"dtype": "DT_INT64", "tensorShape": {"dim": [{"size": "4"}]}}}, "dtype": {"type": "DT_INT64"}}}, {"name": "model_332/tf.strided_slice/StridedSlice/end", "op": "Const", "attr": {"value": {"tensor": {"dtype": "DT_INT64", "tensorShape": {"dim": [{"size": "4"}]}}}, "dtype": {"type": "DT_INT64"}}}, {"name": "model_332/tf.strided_slice/ones_like", "op": "Const", "attr": {"value": {"tensor": {"dtype": "DT_INT64", "tensorShape": {"dim": [{"size": "4"}]}}}, "dtype": {"type": "DT_INT64"}}}, {"name": "model_332/tf.compat.v1.pad/Pad/paddings", "op": "Const", "attr": {"value": {"tensor": {"dtype": "DT_INT32", "tensorShape": {"dim": [{"size": "4"}, {"size": "2"}]}}}, "dtype": {"type": "DT_INT32"}}}, {"name": "model_332/tf.nn.convolution/convolution/filter", "op": "Const", "attr": {"value": {"tensor": {"dtype": "DT_FLOAT", "tensorShape": {"dim": [{"size": "3"}, {"size": "3"}, {"size": "3"}, {"size": "16"}]}}}, "dtype": {"type": "DT_FLOAT"}}}, {"name": "model_332/tf.math.add/Add/y", "op": "Const", "attr": {"value": {"tensor": {"dtype": "DT_FLOAT", "tensorShape": {"dim": [{"size": "16"}]}}}, "dtype": {"type": "DT_FLOAT"}}}, {"name": "model_332/tf.compat.v1.pad_1/Pad/paddings", "op": "Const", "attr": {"value": {"tensor": {"dtype": "DT_INT32", "tensorShape": {"dim": [{"size": "4"}, {"size": "2"}]}}}, "dtype": {"type": "DT_INT32"}}}, {"name": "model_332/tf.nn.convolution_1/convolution/filter", "op": "Const", "attr": {"value": {"tensor": {"dtype": "DT_FLOAT", "tensorShape": {"dim": [{"size": "3"}, {"size": "3"}, {"size": "16"}, {"size": "32"}]}}}, "dtype": {"type": "DT_FLOAT"}}}, {"name": "model_332/tf.math.add_1/Add/y", "op": "Const", "attr": {"value": {"tensor": {"dtype": "DT_FLOAT", "tensorShape": {"dim": [{"size": "32"}]}}}, "dtype": {"type": "DT_FLOAT"}}}, {"name": "model_332/tf.nn.convolution_2/convolution/filter", "op": "Const", "attr": {"value": {"tensor": {"dtype": "DT_FLOAT", "tensorShape": {"dim": [{"size": "1"}, {"size": "1"}, {"size": "32"}, {"size": "32"}]}}}, "dtype": {"type": "DT_FLOAT"}}}, {"name": "model_332/tf.math.add_2/Add/y", "op": "Const", "attr": {"value": {"tensor": {"dtype": "DT_FLOAT", "tensorShape": {"dim": [{"size": "32"}]}}}, "dtype": {"type": "DT_FLOAT"}}}, {"name": "model_332/tf.strided_slice_1/ones_like/tensor", "op": "Const", "attr": {"value": {"tensor": {"dtype": "DT_INT64", "tensorShape": {"dim": [{"size": "4"}]}}}, "dtype": {"type": "DT_INT64"}}}, {"name": "model_332/tf.strided_slice_1/StridedSlice/end", "op": "Const", "attr": {"value": {"tensor": {"dtype": "DT_INT64", "tensorShape": {"dim": [{"size": "4"}]}}}, "dtype": {"type": "DT_INT64"}}}, {"name": "model_332/tf.strided_slice_1/ones_like", "op": "Const", "attr": {"value": {"tensor": {"dtype": "DT_INT64", "tensorShape": {"dim": [{"size": "4"}]}}}, "dtype": {"type": "DT_INT64"}}}, {"name": "model_332/tf.nn.convolution_3/convolution/filter", "op": "Const", "attr": {"value": {"tensor": {"dtype": "DT_FLOAT", "tensorShape": {"dim": [{"size": "3"}, {"size": "3"}, {"size": "16"}, {"size": "16"}]}}}, "dtype": {"type": "DT_FLOAT"}}}, {"name": "model_332/tf.math.add_3/Add/y", "op": "Const", "attr": {"value": {"tensor": {"dtype": "DT_FLOAT", "tensorShape": {"dim": [{"size": "16"}]}}}, "dtype": {"type": "DT_FLOAT"}}}, {"name": "model_332/tf.nn.convolution_4/convolution/filter", "op": "Const", "attr": {"value": {"tensor": {"dtype": "DT_FLOAT", "tensorShape": {"dim": [{"size": "3"}, {"size": "3"}, {"size": "16"}, {"size": "16"}]}}}, "dtype": {"type": "DT_FLOAT"}}}, {"name": "model_332/tf.math.add_4/Add/y", "op": "Const", "attr": {"value": {"tensor": {"dtype": "DT_FLOAT", "tensorShape": {"dim": [{"size": "16"}]}}}, "dtype": {"type": "DT_FLOAT"}}}, {"name": "model_332/tf.concat/concat/axis", "op": "Const", "attr": {"value": {"tensor": {"dtype": "DT_INT32", "tensorShape": {}}}, "dtype": {"type": "DT_INT32"}}}, {"name": "model_332/tf.nn.convolution_5/convolution/filter", "op": "Const", "attr": {"value": {"tensor": {"dtype": "DT_FLOAT", "tensorShape": {"dim": [{"size": "1"}, {"size": "1"}, {"size": "48"}, {"size": "32"}]}}}, "dtype": {"type": "DT_FLOAT"}}}, {"name": "model_332/tf.math.add_7/Add/y", "op": "Const", "attr": {"value": {"tensor": {"dtype": "DT_FLOAT", "tensorShape": {"dim": [{"size": "32"}]}}}, "dtype": {"type": "DT_FLOAT"}}}, {"name": "model_332/tf.compat.v1.pad_2/Pad/paddings", "op": "Const", "attr": {"value": {"tensor": {"dtype": "DT_INT32", "tensorShape": {"dim": [{"size": "4"}, {"size": "2"}]}}}, "dtype": {"type": "DT_INT32"}}}, {"name": "model_332/tf.nn.convolution_6/convolution/filter", "op": "Const", "attr": {"value": {"tensor": {"dtype": "DT_FLOAT", "tensorShape": {"dim": [{"size": "3"}, {"size": "3"}, {"size": "32"}, {"size": "64"}]}}}, "dtype": {"type": "DT_FLOAT"}}}, {"name": "model_332/tf.math.add_8/Add/y", "op": "Const", "attr": {"value": {"tensor": {"dtype": "DT_FLOAT", "tensorShape": {"dim": [{"size": "64"}]}}}, "dtype": {"type": "DT_FLOAT"}}}, {"name": "model_332/tf.nn.convolution_7/convolution/filter", "op": "Const", "attr": {"value": {"tensor": {"dtype": "DT_FLOAT", "tensorShape": {"dim": [{"size": "1"}, {"size": "1"}, {"size": "64"}, {"size": "64"}]}}}, "dtype": {"type": "DT_FLOAT"}}}, {"name": "model_332/tf.math.add_9/Add/y", "op": "Const", "attr": {"value": {"tensor": {"dtype": "DT_FLOAT", "tensorShape": {"dim": [{"size": "64"}]}}}, "dtype": {"type": "DT_FLOAT"}}}, {"name": "model_332/tf.strided_slice_3/ones_like/tensor", "op": "Const", "attr": {"value": {"tensor": {"dtype": "DT_INT64", "tensorShape": {"dim": [{"size": "4"}]}}}, "dtype": {"type": "DT_INT64"}}}, {"name": "model_332/tf.strided_slice_3/StridedSlice/end", "op": "Const", "attr": {"value": {"tensor": {"dtype": "DT_INT64", "tensorShape": {"dim": [{"size": "4"}]}}}, "dtype": {"type": "DT_INT64"}}}, {"name": "model_332/tf.strided_slice_3/ones_like", "op": "Const", "attr": {"value": {"tensor": {"dtype": "DT_INT64", "tensorShape": {"dim": [{"size": "4"}]}}}, "dtype": {"type": "DT_INT64"}}}, {"name": "model_332/tf.nn.convolution_8/convolution/filter", "op": "Const", "attr": {"value": {"tensor": {"dtype": "DT_FLOAT", "tensorShape": {"dim": [{"size": "3"}, {"size": "3"}, {"size": "32"}, {"size": "32"}]}}}, "dtype": {"type": "DT_FLOAT"}}}, {"name": "model_332/tf.math.add_10/Add/y", "op": "Const", "attr": {"value": {"tensor": {"dtype": "DT_FLOAT", "tensorShape": {"dim": [{"size": "32"}]}}}, "dtype": {"type": "DT_FLOAT"}}}, {"name": "model_332/tf.nn.convolution_9/convolution/filter", "op": "Const", "attr": {"value": {"tensor": {"dtype": "DT_FLOAT", "tensorShape": {"dim": [{"size": "3"}, {"size": "3"}, {"size": "32"}, {"size": "32"}]}}}, "dtype": {"type": "DT_FLOAT"}}}, {"name": "model_332/tf.math.add_11/Add/y", "op": "Const", "attr": {"value": {"tensor": {"dtype": "DT_FLOAT", "tensorShape": {"dim": [{"size": "32"}]}}}, "dtype": {"type": "DT_FLOAT"}}}, {"name": "model_332/tf.nn.convolution_10/convolution/filter", "op": "Const", "attr": {"value": {"tensor": {"dtype": "DT_FLOAT", "tensorShape": {"dim": [{"size": "3"}, {"size": "3"}, {"size": "32"}, {"size": "32"}]}}}, "dtype": {"type": "DT_FLOAT"}}}, {"name": "model_332/tf.math.add_14/Add/y", "op": "Const", "attr": {"value": {"tensor": {"dtype": "DT_FLOAT", "tensorShape": {"dim": [{"size": "32"}]}}}, "dtype": {"type": "DT_FLOAT"}}}, {"name": "model_332/tf.nn.convolution_11/convolution/filter", "op": "Const", "attr": {"value": {"tensor": {"dtype": "DT_FLOAT", "tensorShape": {"dim": [{"size": "3"}, {"size": "3"}, {"size": "32"}, {"size": "32"}]}}}, "dtype": {"type": "DT_FLOAT"}}}, {"name": "model_332/tf.math.add_15/Add/y", "op": "Const", "attr": {"value": {"tensor": {"dtype": "DT_FLOAT", "tensorShape": {"dim": [{"size": "32"}]}}}, "dtype": {"type": "DT_FLOAT"}}}, {"name": "model_332/tf.concat_1/concat/axis", "op": "Const", "attr": {"value": {"tensor": {"dtype": "DT_INT32", "tensorShape": {}}}, "dtype": {"type": "DT_INT32"}}}, {"name": "model_332/tf.nn.convolution_19/convolution/filter", "op": "Const", "attr": {"value": {"tensor": {"dtype": "DT_FLOAT", "tensorShape": {"dim": [{"size": "1"}, {"size": "1"}, {"size": "128"}, {"size": "64"}]}}}, "dtype": {"type": "DT_FLOAT"}}}, {"name": "model_332/tf.math.add_25/Add/y", "op": "Const", "attr": {"value": {"tensor": {"dtype": "DT_FLOAT", "tensorShape": {"dim": [{"size": "64"}]}}}, "dtype": {"type": "DT_FLOAT"}}}, {"name": "model_332/tf.compat.v1.pad_3/Pad/paddings", "op": "Const", "attr": {"value": {"tensor": {"dtype": "DT_INT32", "tensorShape": {"dim": [{"size": "4"}, {"size": "2"}]}}}, "dtype": {"type": "DT_INT32"}}}, {"name": "model_332/tf.nn.convolution_20/convolution/filter", "op": "Const", "attr": {"value": {"tensor": {"dtype": "DT_FLOAT", "tensorShape": {"dim": [{"size": "3"}, {"size": "3"}, {"size": "64"}, {"size": "128"}]}}}, "dtype": {"type": "DT_FLOAT"}}}, {"name": "model_332/tf.math.add_26/Add/y", "op": "Const", "attr": {"value": {"tensor": {"dtype": "DT_FLOAT", "tensorShape": {"dim": [{"size": "128"}]}}}, "dtype": {"type": "DT_FLOAT"}}}, {"name": "model_332/tf.nn.convolution_21/convolution/filter", "op": "Const", "attr": {"value": {"tensor": {"dtype": "DT_FLOAT", "tensorShape": {"dim": [{"size": "1"}, {"size": "1"}, {"size": "128"}, {"size": "128"}]}}}, "dtype": {"type": "DT_FLOAT"}}}, {"name": "model_332/tf.math.add_27/Add/y", "op": "Const", "attr": {"value": {"tensor": {"dtype": "DT_FLOAT", "tensorShape": {"dim": [{"size": "128"}]}}}, "dtype": {"type": "DT_FLOAT"}}}, {"name": "model_332/tf.strided_slice_5/ones_like/tensor", "op": "Const", "attr": {"value": {"tensor": {"dtype": "DT_INT64", "tensorShape": {"dim": [{"size": "4"}]}}}, "dtype": {"type": "DT_INT64"}}}, {"name": "model_332/tf.strided_slice_5/StridedSlice/end", "op": "Const", "attr": {"value": {"tensor": {"dtype": "DT_INT64", "tensorShape": {"dim": [{"size": "4"}]}}}, "dtype": {"type": "DT_INT64"}}}, {"name": "model_332/tf.strided_slice_5/ones_like", "op": "Const", "attr": {"value": {"tensor": {"dtype": "DT_INT64", "tensorShape": {"dim": [{"size": "4"}]}}}, "dtype": {"type": "DT_INT64"}}}, {"name": "model_332/tf.nn.convolution_29/convolution/filter", "op": "Const", "attr": {"value": {"tensor": {"dtype": "DT_FLOAT", "tensorShape": {"dim": [{"size": "3"}, {"size": "3"}, {"size": "64"}, {"size": "64"}]}}}, "dtype": {"type": "DT_FLOAT"}}}, {"name": "model_332/tf.math.add_35/Add/y", "op": "Const", "attr": {"value": {"tensor": {"dtype": "DT_FLOAT", "tensorShape": {"dim": [{"size": "64"}]}}}, "dtype": {"type": "DT_FLOAT"}}}, {"name": "model_332/tf.nn.convolution_37/convolution/filter", "op": "Const", "attr": {"value": {"tensor": {"dtype": "DT_FLOAT", "tensorShape": {"dim": [{"size": "3"}, {"size": "3"}, {"size": "64"}, {"size": "64"}]}}}, "dtype": {"type": "DT_FLOAT"}}}, {"name": "model_332/tf.math.add_43/Add/y", "op": "Const", "attr": {"value": {"tensor": {"dtype": "DT_FLOAT", "tensorShape": {"dim": [{"size": "64"}]}}}, "dtype": {"type": "DT_FLOAT"}}}, {"name": "model_332/tf.nn.convolution_45/convolution/filter", "op": "Const", "attr": {"value": {"tensor": {"dtype": "DT_FLOAT", "tensorShape": {"dim": [{"size": "3"}, {"size": "3"}, {"size": "64"}, {"size": "64"}]}}}, "dtype": {"type": "DT_FLOAT"}}}, {"name": "model_332/tf.math.add_53/Add/y", "op": "Const", "attr": {"value": {"tensor": {"dtype": "DT_FLOAT", "tensorShape": {"dim": [{"size": "64"}]}}}, "dtype": {"type": "DT_FLOAT"}}}, {"name": "model_332/tf.nn.convolution_53/convolution/filter", "op": "Const", "attr": {"value": {"tensor": {"dtype": "DT_FLOAT", "tensorShape": {"dim": [{"size": "3"}, {"size": "3"}, {"size": "64"}, {"size": "64"}]}}}, "dtype": {"type": "DT_FLOAT"}}}, {"name": "model_332/tf.math.add_61/Add/y", "op": "Const", "attr": {"value": {"tensor": {"dtype": "DT_FLOAT", "tensorShape": {"dim": [{"size": "64"}]}}}, "dtype": {"type": "DT_FLOAT"}}}, {"name": "model_332/tf.concat_2/concat/axis", "op": "Const", "attr": {"value": {"tensor": {"dtype": "DT_INT32", "tensorShape": {}}}, "dtype": {"type": "DT_INT32"}}}, {"name": "model_332/tf.nn.convolution_54/convolution/filter", "op": "Const", "attr": {"value": {"tensor": {"dtype": "DT_FLOAT", "tensorShape": {"dim": [{"size": "1"}, {"size": "1"}, {"size": "256"}, {"size": "128"}]}}}, "dtype": {"type": "DT_FLOAT"}}}, {"name": "model_332/tf.math.add_64/Add/y", "op": "Const", "attr": {"value": {"tensor": {"dtype": "DT_FLOAT", "tensorShape": {"dim": [{"size": "128"}]}}}, "dtype": {"type": "DT_FLOAT"}}}, {"name": "model_332/tf.compat.v1.pad_4/Pad/paddings", "op": "Const", "attr": {"value": {"tensor": {"dtype": "DT_INT32", "tensorShape": {"dim": [{"size": "4"}, {"size": "2"}]}}}, "dtype": {"type": "DT_INT32"}}}, {"name": "model_332/tf.nn.convolution_55/convolution/filter", "op": "Const", "attr": {"value": {"tensor": {"dtype": "DT_FLOAT", "tensorShape": {"dim": [{"size": "3"}, {"size": "3"}, {"size": "128"}, {"size": "256"}]}}}, "dtype": {"type": "DT_FLOAT"}}}, {"name": "model_332/tf.math.add_65/Add/y", "op": "Const", "attr": {"value": {"tensor": {"dtype": "DT_FLOAT", "tensorShape": {"dim": [{"size": "256"}]}}}, "dtype": {"type": "DT_FLOAT"}}}, {"name": "model_332/tf.nn.convolution_56/convolution/filter", "op": "Const", "attr": {"value": {"tensor": {"dtype": "DT_FLOAT", "tensorShape": {"dim": [{"size": "1"}, {"size": "1"}, {"size": "256"}, {"size": "256"}]}}}, "dtype": {"type": "DT_FLOAT"}}}, {"name": "model_332/tf.math.add_66/Add/y", "op": "Const", "attr": {"value": {"tensor": {"dtype": "DT_FLOAT", "tensorShape": {"dim": [{"size": "256"}]}}}, "dtype": {"type": "DT_FLOAT"}}}, {"name": "model_332/tf.strided_slice_7/ones_like/tensor", "op": "Const", "attr": {"value": {"tensor": {"dtype": "DT_INT64", "tensorShape": {"dim": [{"size": "4"}]}}}, "dtype": {"type": "DT_INT64"}}}, {"name": "model_332/tf.strided_slice_7/StridedSlice/end", "op": "Const", "attr": {"value": {"tensor": {"dtype": "DT_INT64", "tensorShape": {"dim": [{"size": "4"}]}}}, "dtype": {"type": "DT_INT64"}}}, {"name": "model_332/tf.strided_slice_7/ones_like", "op": "Const", "attr": {"value": {"tensor": {"dtype": "DT_INT64", "tensorShape": {"dim": [{"size": "4"}]}}}, "dtype": {"type": "DT_INT64"}}}, {"name": "model_332/tf.nn.convolution_57/convolution/filter", "op": "Const", "attr": {"value": {"tensor": {"dtype": "DT_FLOAT", "tensorShape": {"dim": [{"size": "3"}, {"size": "3"}, {"size": "128"}, {"size": "128"}]}}}, "dtype": {"type": "DT_FLOAT"}}}, {"name": "model_332/tf.math.add_67/Add/y", "op": "Const", "attr": {"value": {"tensor": {"dtype": "DT_FLOAT", "tensorShape": {"dim": [{"size": "128"}]}}}, "dtype": {"type": "DT_FLOAT"}}}, {"name": "model_332/tf.nn.convolution_58/convolution/filter", "op": "Const", "attr": {"value": {"tensor": {"dtype": "DT_FLOAT", "tensorShape": {"dim": [{"size": "3"}, {"size": "3"}, {"size": "128"}, {"size": "128"}]}}}, "dtype": {"type": "DT_FLOAT"}}}, {"name": "model_332/tf.math.add_68/Add/y", "op": "Const", "attr": {"value": {"tensor": {"dtype": "DT_FLOAT", "tensorShape": {"dim": [{"size": "128"}]}}}, "dtype": {"type": "DT_FLOAT"}}}, {"name": "model_332/tf.concat_3/concat/axis", "op": "Const", "attr": {"value": {"tensor": {"dtype": "DT_INT32", "tensorShape": {}}}, "dtype": {"type": "DT_INT32"}}}, {"name": "model_332/tf.nn.convolution_59/convolution/filter", "op": "Const", "attr": {"value": {"tensor": {"dtype": "DT_FLOAT", "tensorShape": {"dim": [{"size": "1"}, {"size": "1"}, {"size": "384"}, {"size": "256"}]}}}, "dtype": {"type": "DT_FLOAT"}}}, {"name": "model_332/tf.math.add_71/Add/y", "op": "Const", "attr": {"value": {"tensor": {"dtype": "DT_FLOAT", "tensorShape": {"dim": [{"size": "256"}]}}}, "dtype": {"type": "DT_FLOAT"}}}, {"name": "model_332/tf.nn.convolution_60/convolution/filter", "op": "Const", "attr": {"value": {"tensor": {"dtype": "DT_FLOAT", "tensorShape": {"dim": [{"size": "1"}, {"size": "1"}, {"size": "256"}, {"size": "128"}]}}}, "dtype": {"type": "DT_FLOAT"}}}, {"name": "model_332/tf.math.add_72/Add/y", "op": "Const", "attr": {"value": {"tensor": {"dtype": "DT_FLOAT", "tensorShape": {"dim": [{"size": "128"}]}}}, "dtype": {"type": "DT_FLOAT"}}}, {"name": "model_332/tf.concat_4/concat/axis", "op": "Const", "attr": {"value": {"tensor": {"dtype": "DT_INT32", "tensorShape": {}}}, "dtype": {"type": "DT_INT32"}}}, {"name": "model_332/tf.nn.convolution_61/convolution/filter", "op": "Const", "attr": {"value": {"tensor": {"dtype": "DT_FLOAT", "tensorShape": {"dim": [{"size": "1"}, {"size": "1"}, {"size": "512"}, {"size": "256"}]}}}, "dtype": {"type": "DT_FLOAT"}}}, {"name": "model_332/tf.math.add_73/Add/y", "op": "Const", "attr": {"value": {"tensor": {"dtype": "DT_FLOAT", "tensorShape": {"dim": [{"size": "256"}]}}}, "dtype": {"type": "DT_FLOAT"}}}, {"name": "model_332/tf.concat_1166/concat/axis", "op": "Const", "attr": {"value": {"tensor": {"dtype": "DT_INT32", "tensorShape": {}}}, "dtype": {"type": "DT_INT32"}}}, {"name": "model_332/tf.nn.convolution_128/convolution/filter", "op": "Const", "attr": {"value": {"tensor": {"dtype": "DT_FLOAT", "tensorShape": {"dim": [{"size": "1"}, {"size": "1"}, {"size": "384"}, {"size": "256"}]}}}, "dtype": {"type": "DT_FLOAT"}}}, {"name": "model_332/tf.math.add_140/Add/y", "op": "Const", "attr": {"value": {"tensor": {"dtype": "DT_FLOAT", "tensorShape": {"dim": [{"size": "256"}]}}}, "dtype": {"type": "DT_FLOAT"}}}, {"name": "model_332/tf.strided_slice_15/ones_like/tensor", "op": "Const", "attr": {"value": {"tensor": {"dtype": "DT_INT64", "tensorShape": {"dim": [{"size": "4"}]}}}, "dtype": {"type": "DT_INT64"}}}, {"name": "model_332/tf.strided_slice_15/StridedSlice/end", "op": "Const", "attr": {"value": {"tensor": {"dtype": "DT_INT64", "tensorShape": {"dim": [{"size": "4"}]}}}, "dtype": {"type": "DT_INT64"}}}, {"name": "model_332/tf.strided_slice_15/ones_like", "op": "Const", "attr": {"value": {"tensor": {"dtype": "DT_INT64", "tensorShape": {"dim": [{"size": "4"}]}}}, "dtype": {"type": "DT_INT64"}}}, {"name": "model_332/tf.nn.convolution_145/convolution/filter", "op": "Const", "attr": {"value": {"tensor": {"dtype": "DT_FLOAT", "tensorShape": {"dim": [{"size": "3"}, {"size": "3"}, {"size": "128"}, {"size": "128"}]}}}, "dtype": {"type": "DT_FLOAT"}}}, {"name": "model_332/tf.math.add_157/Add/y", "op": "Const", "attr": {"value": {"tensor": {"dtype": "DT_FLOAT", "tensorShape": {"dim": [{"size": "128"}]}}}, "dtype": {"type": "DT_FLOAT"}}}, {"name": "model_332/tf.nn.convolution_146/convolution/filter", "op": "Const", "attr": {"value": {"tensor": {"dtype": "DT_FLOAT", "tensorShape": {"dim": [{"size": "3"}, {"size": "3"}, {"size": "128"}, {"size": "128"}]}}}, "dtype": {"type": "DT_FLOAT"}}}, {"name": "model_332/tf.math.add_158/Add/y", "op": "Const", "attr": {"value": {"tensor": {"dtype": "DT_FLOAT", "tensorShape": {"dim": [{"size": "128"}]}}}, "dtype": {"type": "DT_FLOAT"}}}, {"name": "model_332/tf.concat_1745/concat/axis", "op": "Const", "attr": {"value": {"tensor": {"dtype": "DT_INT32", "tensorShape": {}}}, "dtype": {"type": "DT_INT32"}}}, {"name": "model_332/tf.nn.convolution_147/convolution/filter", "op": "Const", "attr": {"value": {"tensor": {"dtype": "DT_FLOAT", "tensorShape": {"dim": [{"size": "1"}, {"size": "1"}, {"size": "384"}, {"size": "256"}]}}}, "dtype": {"type": "DT_FLOAT"}}}, {"name": "model_332/tf.math.add_159/Add/y", "op": "Const", "attr": {"value": {"tensor": {"dtype": "DT_FLOAT", "tensorShape": {"dim": [{"size": "256"}]}}}, "dtype": {"type": "DT_FLOAT"}}}, {"name": "model_332/tf.nn.convolution_149/convolution/filter", "op": "Const", "attr": {"value": {"tensor": {"dtype": "DT_FLOAT", "tensorShape": {"dim": [{"size": "3"}, {"size": "3"}, {"size": "256"}, {"size": "64"}]}}}, "dtype": {"type": "DT_FLOAT"}}}, {"name": "model_332/tf.math.add_161/Add/y", "op": "Const", "attr": {"value": {"tensor": {"dtype": "DT_FLOAT", "tensorShape": {"dim": [{"size": "64"}]}}}, "dtype": {"type": "DT_FLOAT"}}}, {"name": "model_332/tf.nn.convolution_151/convolution/filter", "op": "Const", "attr": {"value": {"tensor": {"dtype": "DT_FLOAT", "tensorShape": {"dim": [{"size": "3"}, {"size": "3"}, {"size": "64"}, {"size": "64"}]}}}, "dtype": {"type": "DT_FLOAT"}}}, {"name": "model_332/tf.math.add_163/Add/y", "op": "Const", "attr": {"value": {"tensor": {"dtype": "DT_FLOAT", "tensorShape": {"dim": [{"size": "64"}]}}}, "dtype": {"type": "DT_FLOAT"}}}, {"name": "model_332/tf.nn.convolution_153/convolution/filter", "op": "Const", "attr": {"value": {"tensor": {"dtype": "DT_FLOAT", "tensorShape": {"dim": [{"size": "1"}, {"size": "1"}, {"size": "64"}, {"size": "4"}]}}}, "dtype": {"type": "DT_FLOAT"}}}, {"name": "model_332/tf.math.add_165/Add/y", "op": "Const", "attr": {"value": {"tensor": {"dtype": "DT_FLOAT", "tensorShape": {"dim": [{"size": "4"}]}}}, "dtype": {"type": "DT_FLOAT"}}}, {"name": "model_332/tf.concat_1746/concat/axis", "op": "Const", "attr": {"value": {"tensor": {"dtype": "DT_INT32", "tensorShape": {}}}, "dtype": {"type": "DT_INT32"}}}, {"name": "model_332/tf.compat.v1.transpose_3476/transpose/perm", "op": "Const", "attr": {"value": {"tensor": {"dtype": "DT_INT32", "tensorShape": {"dim": [{"size": "4"}]}}}, "dtype": {"type": "DT_INT32"}}}, {"name": "model_332/tf.reshape_77/Reshape/shape", "op": "Const", "attr": {"value": {"tensor": {"dtype": "DT_INT32", "tensorShape": {"dim": [{"size": "3"}]}}}, "dtype": {"type": "DT_INT32"}}}, {"name": "model_332/tf.concat_1747/concat/axis", "op": "Const", "attr": {"value": {"tensor": {"dtype": "DT_INT32", "tensorShape": {}}}, "dtype": {"type": "DT_INT32"}}}, {"name": "model_332/tf.strided_slice_17/StridedSlice/begin", "op": "Const", "attr": {"value": {"tensor": {"dtype": "DT_INT64", "tensorShape": {"dim": [{"size": "3"}]}}}, "dtype": {"type": "DT_INT64"}}}, {"name": "model_332/tf.strided_slice_17/StridedSlice/end", "op": "Const", "attr": {"value": {"tensor": {"dtype": "DT_INT64", "tensorShape": {"dim": [{"size": "3"}]}}}, "dtype": {"type": "DT_INT64"}}}, {"name": "model_332/tf.strided_slice_17/StridedSlice/strides", "op": "Const", "attr": {"value": {"tensor": {"dtype": "DT_INT64", "tensorShape": {"dim": [{"size": "3"}]}}}, "dtype": {"type": "DT_INT64"}}}, {"name": "model_332/output0/concat/axis", "op": "Const", "attr": {"value": {"tensor": {"dtype": "DT_INT32", "tensorShape": {}}}, "dtype": {"type": "DT_INT32"}}}, {"name": "x", "op": "Placeholder", "attr": {"shape": {"shape": {"dim": [{"size": "1"}, {"size": "1024"}, {"size": "1024"}, {"size": "3"}]}}, "dtype": {"type": "DT_FLOAT"}}}, {"name": "model_332/tf.compat.v1.pad/Pad", "op": "Pad", "input": ["x", "model_332/tf.compat.v1.pad/Pad/paddings"], "attr": {"Tpaddings": {"type": "DT_INT32"}, "T": {"type": "DT_FLOAT"}}}, {"name": "model_332/tf.math.add/Add", "op": "_FusedConv2D", "input": ["model_332/tf.compat.v1.pad/Pad", "model_332/tf.nn.convolution/convolution/filter", "model_332/tf.math.add/Add/y"], "device": "/device:CPU:0", "attr": {"num_host_args": {"i": "0"}, "data_format": {"s": "TkhXQw=="}, "filter_format": {"s": "SFdJTw=="}, "_input_shapes": {"list": {"shape": [{"dim": [{"size": "-34"}, {"size": "-38"}, {"size": "-39"}, {"size": "-37"}]}, {"dim": [{"size": "3"}, {"size": "3"}, {"size": "3"}, {"size": "16"}]}]}}, "strides": {"list": {"i": ["1", "2", "2", "1"]}}, "num_args": {"i": "1"}, "fused_ops": {"list": {"s": ["Qmlhc0FkZA=="]}}, "TArgs": {"list": {"type": ["DT_FLOAT"]}}, "padding": {"s": "VkFMSUQ="}, "use_cudnn_on_gpu": {"b": true}, "leakyrelu_alpha": {"f": 0.2}, "epsilon": {"f": 0.0}, "T": {"type": "DT_FLOAT"}, "explicit_paddings": {"list": {}}, "dilations": {"list": {"i": ["1", "1", "1", "1"]}}}}, {"name": "model_332/tf.math.sigmoid/Sigmoid", "op": "Sigmoid", "input": ["model_332/tf.math.add/Add"], "attr": {"_input_shapes": {"list": {"shape": [{"dim": [{"size": "-34"}, {"size": "-40"}, {"size": "-41"}, {"size": "16"}]}]}}, "T": {"type": "DT_FLOAT"}}}, {"name": "model_332/tf.math.multiply_3/Mul", "op": "Mul", "input": ["model_332/tf.math.add/Add", "model_332/tf.math.sigmoid/Sigmoid"], "attr": {"T": {"type": "DT_FLOAT"}}}, {"name": "model_332/tf.compat.v1.pad_1/Pad", "op": "Pad", "input": ["model_332/tf.math.multiply_3/Mul", "model_332/tf.compat.v1.pad_1/Pad/paddings"], "attr": {"Tpaddings": {"type": "DT_INT32"}, "T": {"type": "DT_FLOAT"}}}, {"name": "model_332/tf.math.add_1/Add", "op": "_FusedConv2D", "input": ["model_332/tf.compat.v1.pad_1/Pad", "model_332/tf.nn.convolution_1/convolution/filter", "model_332/tf.math.add_1/Add/y"], "device": "/device:CPU:0", "attr": {"num_host_args": {"i": "0"}, "data_format": {"s": "TkhXQw=="}, "filter_format": {"s": "SFdJTw=="}, "_input_shapes": {"list": {"shape": [{"dim": [{"size": "-34"}, {"size": "-42"}, {"size": "-43"}, {"size": "16"}]}, {"dim": [{"size": "3"}, {"size": "3"}, {"size": "16"}, {"size": "32"}]}]}}, "strides": {"list": {"i": ["1", "2", "2", "1"]}}, "num_args": {"i": "1"}, "fused_ops": {"list": {"s": ["Qmlhc0FkZA=="]}}, "TArgs": {"list": {"type": ["DT_FLOAT"]}}, "padding": {"s": "VkFMSUQ="}, "use_cudnn_on_gpu": {"b": true}, "leakyrelu_alpha": {"f": 0.2}, "epsilon": {"f": 0.0}, "T": {"type": "DT_FLOAT"}, "explicit_paddings": {"list": {}}, "dilations": {"list": {"i": ["1", "1", "1", "1"]}}}}, {"name": "model_332/tf.math.sigmoid_1/Sigmoid", "op": "Sigmoid", "input": ["model_332/tf.math.add_1/Add"], "attr": {"_input_shapes": {"list": {"shape": [{"dim": [{"size": "-34"}, {"size": "-44"}, {"size": "-45"}, {"size": "32"}]}]}}, "T": {"type": "DT_FLOAT"}}}, {"name": "model_332/tf.math.multiply_7/Mul", "op": "Mul", "input": ["model_332/tf.math.add_1/Add", "model_332/tf.math.sigmoid_1/Sigmoid"], "attr": {"T": {"type": "DT_FLOAT"}}}, {"name": "model_332/tf.math.add_2/Add", "op": "_FusedConv2D", "input": ["model_332/tf.math.multiply_7/Mul", "model_332/tf.nn.convolution_2/convolution/filter", "model_332/tf.math.add_2/Add/y"], "device": "/device:CPU:0", "attr": {"num_host_args": {"i": "0"}, "_input_shapes": {"list": {"shape": [{"dim": [{"size": "-34"}, {"size": "-44"}, {"size": "-45"}, {"size": "32"}]}, {"dim": [{"size": "1"}, {"size": "1"}, {"size": "32"}, {"size": "32"}]}]}}, "filter_format": {"s": "SFdJTw=="}, "data_format": {"s": "TkhXQw=="}, "strides": {"list": {"i": ["1", "1", "1", "1"]}}, "num_args": {"i": "1"}, "fused_ops": {"list": {"s": ["Qmlhc0FkZA=="]}}, "TArgs": {"list": {"type": ["DT_FLOAT"]}}, "padding": {"s": "U0FNRQ=="}, "use_cudnn_on_gpu": {"b": true}, "leakyrelu_alpha": {"f": 0.2}, "epsilon": {"f": 0.0}, "T": {"type": "DT_FLOAT"}, "explicit_paddings": {"list": {}}, "dilations": {"list": {"i": ["1", "1", "1", "1"]}}}}, {"name": "model_332/tf.math.sigmoid_2/Sigmoid", "op": "Sigmoid", "input": ["model_332/tf.math.add_2/Add"], "attr": {"_input_shapes": {"list": {"shape": [{"dim": [{"size": "-34"}, {"size": "-44"}, {"size": "-45"}, {"size": "32"}]}]}}, "T": {"type": "DT_FLOAT"}}}, {"name": "model_332/tf.math.multiply_11/Mul", "op": "Mul", "input": ["model_332/tf.math.add_2/Add", "model_332/tf.math.sigmoid_2/Sigmoid"], "attr": {"T": {"type": "DT_FLOAT"}}}, {"name": "model_332/tf.strided_slice/StridedSlice", "op": "StridedSlice", "input": ["model_332/tf.math.multiply_11/Mul", "model_332/tf.strided_slice/ones_like/tensor", "model_332/tf.strided_slice/StridedSlice/end", "model_332/tf.strided_slice/ones_like"], "attr": {"shrink_axis_mask": {"i": "0"}, "new_axis_mask": {"i": "0"}, "Index": {"type": "DT_INT64"}, "begin_mask": {"i": "15"}, "end_mask": {"i": "7"}, "T": {"type": "DT_FLOAT"}, "ellipsis_mask": {"i": "0"}}}, {"name": "model_332/tf.strided_slice_1/StridedSlice", "op": "StridedSlice", "input": ["model_332/tf.math.multiply_11/Mul", "model_332/tf.strided_slice_1/ones_like/tensor", "model_332/tf.strided_slice_1/StridedSlice/end", "model_332/tf.strided_slice_1/ones_like"], "attr": {"shrink_axis_mask": {"i": "0"}, "Index": {"type": "DT_INT64"}, "new_axis_mask": {"i": "0"}, "begin_mask": {"i": "7"}, "end_mask": {"i": "7"}, "T": {"type": "DT_FLOAT"}, "ellipsis_mask": {"i": "0"}}}, {"name": "model_332/tf.math.add_3/Add", "op": "_FusedConv2D", "input": ["model_332/tf.strided_slice_1/StridedSlice", "model_332/tf.nn.convolution_3/convolution/filter", "model_332/tf.math.add_3/Add/y"], "device": "/device:CPU:0", "attr": {"num_host_args": {"i": "0"}, "_input_shapes": {"list": {"shape": [{"dim": [{"size": "-5"}, {"size": "-6"}, {"size": "-7"}, {"size": "16"}]}, {"dim": [{"size": "3"}, {"size": "3"}, {"size": "16"}, {"size": "16"}]}]}}, "filter_format": {"s": "SFdJTw=="}, "data_format": {"s": "TkhXQw=="}, "strides": {"list": {"i": ["1", "1", "1", "1"]}}, "num_args": {"i": "1"}, "fused_ops": {"list": {"s": ["Qmlhc0FkZA=="]}}, "TArgs": {"list": {"type": ["DT_FLOAT"]}}, "padding": {"s": "U0FNRQ=="}, "use_cudnn_on_gpu": {"b": true}, "leakyrelu_alpha": {"f": 0.2}, "epsilon": {"f": 0.0}, "T": {"type": "DT_FLOAT"}, "explicit_paddings": {"list": {}}, "dilations": {"list": {"i": ["1", "1", "1", "1"]}}}}, {"name": "model_332/tf.math.sigmoid_3/Sigmoid", "op": "Sigmoid", "input": ["model_332/tf.math.add_3/Add"], "attr": {"_input_shapes": {"list": {"shape": [{"dim": [{"size": "-5"}, {"size": "-6"}, {"size": "-7"}, {"size": "16"}]}]}}, "T": {"type": "DT_FLOAT"}}}, {"name": "model_332/tf.math.multiply_15/Mul", "op": "Mul", "input": ["model_332/tf.math.add_3/Add", "model_332/tf.math.sigmoid_3/Sigmoid"], "attr": {"T": {"type": "DT_FLOAT"}}}, {"name": "model_332/tf.math.add_4/Add", "op": "_FusedConv2D", "input": ["model_332/tf.math.multiply_15/Mul", "model_332/tf.nn.convolution_4/convolution/filter", "model_332/tf.math.add_4/Add/y"], "device": "/device:CPU:0", "attr": {"num_host_args": {"i": "0"}, "data_format": {"s": "TkhXQw=="}, "filter_format": {"s": "SFdJTw=="}, "_input_shapes": {"list": {"shape": [{"dim": [{"size": "-5"}, {"size": "-6"}, {"size": "-7"}, {"size": "16"}]}, {"dim": [{"size": "3"}, {"size": "3"}, {"size": "16"}, {"size": "16"}]}]}}, "strides": {"list": {"i": ["1", "1", "1", "1"]}}, "num_args": {"i": "1"}, "fused_ops": {"list": {"s": ["Qmlhc0FkZA=="]}}, "TArgs": {"list": {"type": ["DT_FLOAT"]}}, "padding": {"s": "U0FNRQ=="}, "use_cudnn_on_gpu": {"b": true}, "leakyrelu_alpha": {"f": 0.2}, "epsilon": {"f": 0.0}, "T": {"type": "DT_FLOAT"}, "explicit_paddings": {"list": {}}, "dilations": {"list": {"i": ["1", "1", "1", "1"]}}}}, {"name": "model_332/tf.math.sigmoid_4/Sigmoid", "op": "Sigmoid", "input": ["model_332/tf.math.add_4/Add"], "attr": {"_input_shapes": {"list": {"shape": [{"dim": [{"size": "-5"}, {"size": "-6"}, {"size": "-7"}, {"size": "16"}]}]}}, "T": {"type": "DT_FLOAT"}}}, {"name": "model_332/tf.math.multiply_19/Mul", "op": "Mul", "input": ["model_332/tf.math.add_4/Add", "model_332/tf.math.sigmoid_4/Sigmoid"], "attr": {"T": {"type": "DT_FLOAT"}}}, {"name": "model_332/tf.math.add_6/Add", "op": "AddV2", "input": ["model_332/tf.strided_slice_1/StridedSlice", "model_332/tf.math.multiply_19/Mul"], "attr": {"T": {"type": "DT_FLOAT"}}}, {"name": "model_332/tf.concat/concat", "op": "ConcatV2", "input": ["model_332/tf.strided_slice/StridedSlice", "model_332/tf.strided_slice_1/StridedSlice", "model_332/tf.math.add_6/Add", "model_332/tf.concat/concat/axis"], "attr": {"N": {"i": "3"}, "Tidx": {"type": "DT_INT32"}, "T": {"type": "DT_FLOAT"}}}, {"name": "model_332/tf.math.add_7/Add", "op": "_FusedConv2D", "input": ["model_332/tf.concat/concat", "model_332/tf.nn.convolution_5/convolution/filter", "model_332/tf.math.add_7/Add/y"], "device": "/device:CPU:0", "attr": {"num_host_args": {"i": "0"}, "_input_shapes": {"list": {"shape": [{"dim": [{"size": "-5"}, {"size": "-6"}, {"size": "-7"}, {"size": "48"}]}, {"dim": [{"size": "1"}, {"size": "1"}, {"size": "48"}, {"size": "32"}]}]}}, "filter_format": {"s": "SFdJTw=="}, "data_format": {"s": "TkhXQw=="}, "strides": {"list": {"i": ["1", "1", "1", "1"]}}, "num_args": {"i": "1"}, "fused_ops": {"list": {"s": ["Qmlhc0FkZA=="]}}, "TArgs": {"list": {"type": ["DT_FLOAT"]}}, "padding": {"s": "U0FNRQ=="}, "use_cudnn_on_gpu": {"b": true}, "leakyrelu_alpha": {"f": 0.2}, "epsilon": {"f": 0.0}, "T": {"type": "DT_FLOAT"}, "explicit_paddings": {"list": {}}, "dilations": {"list": {"i": ["1", "1", "1", "1"]}}}}, {"name": "model_332/tf.math.sigmoid_5/Sigmoid", "op": "Sigmoid", "input": ["model_332/tf.math.add_7/Add"], "attr": {"_input_shapes": {"list": {"shape": [{"dim": [{"size": "-5"}, {"size": "-6"}, {"size": "-7"}, {"size": "32"}]}]}}, "T": {"type": "DT_FLOAT"}}}, {"name": "model_332/tf.math.multiply_25/Mul", "op": "Mul", "input": ["model_332/tf.math.add_7/Add", "model_332/tf.math.sigmoid_5/Sigmoid"], "attr": {"T": {"type": "DT_FLOAT"}}}, {"name": "model_332/tf.compat.v1.pad_2/Pad", "op": "Pad", "input": ["model_332/tf.math.multiply_25/Mul", "model_332/tf.compat.v1.pad_2/Pad/paddings"], "attr": {"Tpaddings": {"type": "DT_INT32"}, "T": {"type": "DT_FLOAT"}}}, {"name": "model_332/tf.math.add_8/Add", "op": "_FusedConv2D", "input": ["model_332/tf.compat.v1.pad_2/Pad", "model_332/tf.nn.convolution_6/convolution/filter", "model_332/tf.math.add_8/Add/y"], "device": "/device:CPU:0", "attr": {"num_host_args": {"i": "0"}, "_input_shapes": {"list": {"shape": [{"dim": [{"size": "-5"}, {"size": "-46"}, {"size": "-47"}, {"size": "32"}]}, {"dim": [{"size": "3"}, {"size": "3"}, {"size": "32"}, {"size": "64"}]}]}}, "filter_format": {"s": "SFdJTw=="}, "data_format": {"s": "TkhXQw=="}, "fused_ops": {"list": {"s": ["Qmlhc0FkZA=="]}}, "num_args": {"i": "1"}, "strides": {"list": {"i": ["1", "2", "2", "1"]}}, "TArgs": {"list": {"type": ["DT_FLOAT"]}}, "padding": {"s": "VkFMSUQ="}, "use_cudnn_on_gpu": {"b": true}, "leakyrelu_alpha": {"f": 0.2}, "epsilon": {"f": 0.0}, "T": {"type": "DT_FLOAT"}, "explicit_paddings": {"list": {}}, "dilations": {"list": {"i": ["1", "1", "1", "1"]}}}}, {"name": "model_332/tf.math.sigmoid_6/Sigmoid", "op": "Sigmoid", "input": ["model_332/tf.math.add_8/Add"], "attr": {"_input_shapes": {"list": {"shape": [{"dim": [{"size": "-5"}, {"size": "-48"}, {"size": "-49"}, {"size": "64"}]}]}}, "T": {"type": "DT_FLOAT"}}}, {"name": "model_332/tf.math.multiply_29/Mul", "op": "Mul", "input": ["model_332/tf.math.add_8/Add", "model_332/tf.math.sigmoid_6/Sigmoid"], "attr": {"T": {"type": "DT_FLOAT"}}}, {"name": "model_332/tf.math.add_9/Add", "op": "_FusedConv2D", "input": ["model_332/tf.math.multiply_29/Mul", "model_332/tf.nn.convolution_7/convolution/filter", "model_332/tf.math.add_9/Add/y"], "device": "/device:CPU:0", "attr": {"num_host_args": {"i": "0"}, "data_format": {"s": "TkhXQw=="}, "filter_format": {"s": "SFdJTw=="}, "_input_shapes": {"list": {"shape": [{"dim": [{"size": "-5"}, {"size": "-48"}, {"size": "-49"}, {"size": "64"}]}, {"dim": [{"size": "1"}, {"size": "1"}, {"size": "64"}, {"size": "64"}]}]}}, "strides": {"list": {"i": ["1", "1", "1", "1"]}}, "num_args": {"i": "1"}, "fused_ops": {"list": {"s": ["Qmlhc0FkZA=="]}}, "TArgs": {"list": {"type": ["DT_FLOAT"]}}, "padding": {"s": "U0FNRQ=="}, "use_cudnn_on_gpu": {"b": true}, "leakyrelu_alpha": {"f": 0.2}, "epsilon": {"f": 0.0}, "T": {"type": "DT_FLOAT"}, "explicit_paddings": {"list": {}}, "dilations": {"list": {"i": ["1", "1", "1", "1"]}}}}, {"name": "model_332/tf.math.sigmoid_7/Sigmoid", "op": "Sigmoid", "input": ["model_332/tf.math.add_9/Add"], "attr": {"_input_shapes": {"list": {"shape": [{"dim": [{"size": "-5"}, {"size": "-48"}, {"size": "-49"}, {"size": "64"}]}]}}, "T": {"type": "DT_FLOAT"}}}, {"name": "model_332/tf.math.multiply_33/Mul", "op": "Mul", "input": ["model_332/tf.math.add_9/Add", "model_332/tf.math.sigmoid_7/Sigmoid"], "attr": {"T": {"type": "DT_FLOAT"}}}, {"name": "model_332/tf.strided_slice_2/StridedSlice", "op": "StridedSlice", "input": ["model_332/tf.math.multiply_33/Mul", "model_332/tf.strided_slice_2/ones_like/tensor", "model_332/tf.strided_slice_2/StridedSlice/end", "model_332/tf.strided_slice_2/ones_like"], "attr": {"shrink_axis_mask": {"i": "0"}, "Index": {"type": "DT_INT64"}, "new_axis_mask": {"i": "0"}, "begin_mask": {"i": "15"}, "T": {"type": "DT_FLOAT"}, "end_mask": {"i": "7"}, "ellipsis_mask": {"i": "0"}}}, {"name": "model_332/tf.strided_slice_3/StridedSlice", "op": "StridedSlice", "input": ["model_332/tf.math.multiply_33/Mul", "model_332/tf.strided_slice_3/ones_like/tensor", "model_332/tf.strided_slice_3/StridedSlice/end", "model_332/tf.strided_slice_3/ones_like"], "attr": {"shrink_axis_mask": {"i": "0"}, "new_axis_mask": {"i": "0"}, "Index": {"type": "DT_INT64"}, "begin_mask": {"i": "7"}, "end_mask": {"i": "7"}, "T": {"type": "DT_FLOAT"}, "ellipsis_mask": {"i": "0"}}}, {"name": "model_332/tf.math.add_10/Add", "op": "_FusedConv2D", "input": ["model_332/tf.strided_slice_3/StridedSlice", "model_332/tf.nn.convolution_8/convolution/filter", "model_332/tf.math.add_10/Add/y"], "device": "/device:CPU:0", "attr": {"num_host_args": {"i": "0"}, "_input_shapes": {"list": {"shape": [{"dim": [{"size": "-27"}, {"size": "128"}, {"size": "128"}, {"size": "32"}]}, {"dim": [{"size": "3"}, {"size": "3"}, {"size": "32"}, {"size": "32"}]}]}}, "filter_format": {"s": "SFdJTw=="}, "data_format": {"s": "TkhXQw=="}, "strides": {"list": {"i": ["1", "1", "1", "1"]}}, "num_args": {"i": "1"}, "fused_ops": {"list": {"s": ["Qmlhc0FkZA=="]}}, "TArgs": {"list": {"type": ["DT_FLOAT"]}}, "padding": {"s": "U0FNRQ=="}, "use_cudnn_on_gpu": {"b": true}, "leakyrelu_alpha": {"f": 0.2}, "epsilon": {"f": 0.0}, "T": {"type": "DT_FLOAT"}, "explicit_paddings": {"list": {}}, "dilations": {"list": {"i": ["1", "1", "1", "1"]}}}}, {"name": "model_332/tf.math.sigmoid_8/Sigmoid", "op": "Sigmoid", "input": ["model_332/tf.math.add_10/Add"], "attr": {"_input_shapes": {"list": {"shape": [{"dim": [{"size": "-27"}, {"size": "128"}, {"size": "128"}, {"size": "32"}]}]}}, "T": {"type": "DT_FLOAT"}}}, {"name": "model_332/tf.math.multiply_37/Mul", "op": "Mul", "input": ["model_332/tf.math.add_10/Add", "model_332/tf.math.sigmoid_8/Sigmoid"], "attr": {"T": {"type": "DT_FLOAT"}}}, {"name": "model_332/tf.math.add_11/Add", "op": "_FusedConv2D", "input": ["model_332/tf.math.multiply_37/Mul", "model_332/tf.nn.convolution_9/convolution/filter", "model_332/tf.math.add_11/Add/y"], "device": "/device:CPU:0", "attr": {"num_host_args": {"i": "0"}, "data_format": {"s": "TkhXQw=="}, "filter_format": {"s": "SFdJTw=="}, "_input_shapes": {"list": {"shape": [{"dim": [{"size": "-27"}, {"size": "128"}, {"size": "128"}, {"size": "32"}]}, {"dim": [{"size": "3"}, {"size": "3"}, {"size": "32"}, {"size": "32"}]}]}}, "strides": {"list": {"i": ["1", "1", "1", "1"]}}, "num_args": {"i": "1"}, "fused_ops": {"list": {"s": ["Qmlhc0FkZA=="]}}, "TArgs": {"list": {"type": ["DT_FLOAT"]}}, "padding": {"s": "U0FNRQ=="}, "use_cudnn_on_gpu": {"b": true}, "leakyrelu_alpha": {"f": 0.2}, "epsilon": {"f": 0.0}, "T": {"type": "DT_FLOAT"}, "explicit_paddings": {"list": {}}, "dilations": {"list": {"i": ["1", "1", "1", "1"]}}}}, {"name": "model_332/tf.math.sigmoid_9/Sigmoid", "op": "Sigmoid", "input": ["model_332/tf.math.add_11/Add"], "attr": {"_input_shapes": {"list": {"shape": [{"dim": [{"size": "-27"}, {"size": "128"}, {"size": "128"}, {"size": "32"}]}]}}, "T": {"type": "DT_FLOAT"}}}, {"name": "model_332/tf.math.multiply_41/Mul", "op": "Mul", "input": ["model_332/tf.math.add_11/Add", "model_332/tf.math.sigmoid_9/Sigmoid"], "attr": {"T": {"type": "DT_FLOAT"}}}, {"name": "model_332/tf.math.add_13/Add", "op": "AddV2", "input": ["model_332/tf.strided_slice_3/StridedSlice", "model_332/tf.math.multiply_41/Mul"], "attr": {"T": {"type": "DT_FLOAT"}}}, {"name": "model_332/tf.math.add_14/Add", "op": "_FusedConv2D", "input": ["model_332/tf.math.add_13/Add", "model_332/tf.nn.convolution_10/convolution/filter", "model_332/tf.math.add_14/Add/y"], "device": "/device:CPU:0", "attr": {"num_host_args": {"i": "0"}, "data_format": {"s": "TkhXQw=="}, "filter_format": {"s": "SFdJTw=="}, "_input_shapes": {"list": {"shape": [{"dim": [{"size": "-27"}, {"size": "128"}, {"size": "128"}, {"size": "32"}]}, {"dim": [{"size": "3"}, {"size": "3"}, {"size": "32"}, {"size": "32"}]}]}}, "fused_ops": {"list": {"s": ["Qmlhc0FkZA=="]}}, "num_args": {"i": "1"}, "strides": {"list": {"i": ["1", "1", "1", "1"]}}, "TArgs": {"list": {"type": ["DT_FLOAT"]}}, "padding": {"s": "U0FNRQ=="}, "use_cudnn_on_gpu": {"b": true}, "leakyrelu_alpha": {"f": 0.2}, "epsilon": {"f": 0.0}, "T": {"type": "DT_FLOAT"}, "explicit_paddings": {"list": {}}, "dilations": {"list": {"i": ["1", "1", "1", "1"]}}}}, {"name": "model_332/tf.math.sigmoid_10/Sigmoid", "op": "Sigmoid", "input": ["model_332/tf.math.add_14/Add"], "attr": {"_input_shapes": {"list": {"shape": [{"dim": [{"size": "-27"}, {"size": "128"}, {"size": "128"}, {"size": "32"}]}]}}, "T": {"type": "DT_FLOAT"}}}, {"name": "model_332/tf.math.multiply_47/Mul", "op": "Mul", "input": ["model_332/tf.math.add_14/Add", "model_332/tf.math.sigmoid_10/Sigmoid"], "attr": {"T": {"type": "DT_FLOAT"}}}, {"name": "model_332/tf.math.add_15/Add", "op": "_FusedConv2D", "input": ["model_332/tf.math.multiply_47/Mul", "model_332/tf.nn.convolution_11/convolution/filter", "model_332/tf.math.add_15/Add/y"], "device": "/device:CPU:0", "attr": {"num_host_args": {"i": "0"}, "_input_shapes": {"list": {"shape": [{"dim": [{"size": "-27"}, {"size": "128"}, {"size": "128"}, {"size": "32"}]}, {"dim": [{"size": "3"}, {"size": "3"}, {"size": "32"}, {"size": "32"}]}]}}, "filter_format": {"s": "SFdJTw=="}, "data_format": {"s": "TkhXQw=="}, "strides": {"list": {"i": ["1", "1", "1", "1"]}}, "num_args": {"i": "1"}, "fused_ops": {"list": {"s": ["Qmlhc0FkZA=="]}}, "TArgs": {"list": {"type": ["DT_FLOAT"]}}, "padding": {"s": "U0FNRQ=="}, "use_cudnn_on_gpu": {"b": true}, "leakyrelu_alpha": {"f": 0.2}, "epsilon": {"f": 0.0}, "T": {"type": "DT_FLOAT"}, "explicit_paddings": {"list": {}}, "dilations": {"list": {"i": ["1", "1", "1", "1"]}}}}, {"name": "model_332/tf.math.sigmoid_11/Sigmoid", "op": "Sigmoid", "input": ["model_332/tf.math.add_15/Add"], "attr": {"_input_shapes": {"list": {"shape": [{"dim": [{"size": "-27"}, {"size": "128"}, {"size": "128"}, {"size": "32"}]}]}}, "T": {"type": "DT_FLOAT"}}}, {"name": "model_332/tf.math.multiply_51/Mul", "op": "Mul", "input": ["model_332/tf.math.add_15/Add", "model_332/tf.math.sigmoid_11/Sigmoid"], "attr": {"T": {"type": "DT_FLOAT"}}}, {"name": "model_332/tf.math.add_17/Add", "op": "AddV2", "input": ["model_332/tf.math.add_13/Add", "model_332/tf.math.multiply_51/Mul"], "attr": {"T": {"type": "DT_FLOAT"}}}, {"name": "model_332/tf.concat_1/concat", "op": "ConcatV2", "input": ["model_332/tf.strided_slice_2/StridedSlice", "model_332/tf.strided_slice_3/StridedSlice", "model_332/tf.math.add_13/Add", "model_332/tf.math.add_17/Add", "model_332/tf.concat_1/concat/axis"], "attr": {"N": {"i": "4"}, "Tidx": {"type": "DT_INT32"}, "T": {"type": "DT_FLOAT"}}}, {"name": "model_332/tf.math.add_25/Add", "op": "_FusedConv2D", "input": ["model_332/tf.concat_1/concat", "model_332/tf.nn.convolution_19/convolution/filter", "model_332/tf.math.add_25/Add/y"], "device": "/device:CPU:0", "attr": {"num_host_args": {"i": "0"}, "_input_shapes": {"list": {"shape": [{"dim": [{"size": "-27"}, {"size": "128"}, {"size": "128"}, {"size": "128"}]}, {"dim": [{"size": "1"}, {"size": "1"}, {"size": "128"}, {"size": "64"}]}]}}, "filter_format": {"s": "SFdJTw=="}, "data_format": {"s": "TkhXQw=="}, "fused_ops": {"list": {"s": ["Qmlhc0FkZA=="]}}, "num_args": {"i": "1"}, "strides": {"list": {"i": ["1", "1", "1", "1"]}}, "TArgs": {"list": {"type": ["DT_FLOAT"]}}, "padding": {"s": "U0FNRQ=="}, "use_cudnn_on_gpu": {"b": true}, "leakyrelu_alpha": {"f": 0.2}, "epsilon": {"f": 0.0}, "T": {"type": "DT_FLOAT"}, "explicit_paddings": {"list": {}}, "dilations": {"list": {"i": ["1", "1", "1", "1"]}}}}, {"name": "model_332/tf.math.sigmoid_12/Sigmoid", "op": "Sigmoid", "input": ["model_332/tf.math.add_25/Add"], "attr": {"_input_shapes": {"list": {"shape": [{"dim": [{"size": "-27"}, {"size": "128"}, {"size": "128"}, {"size": "64"}]}]}}, "T": {"type": "DT_FLOAT"}}}, {"name": "model_332/tf.math.multiply_57/Mul", "op": "Mul", "input": ["model_332/tf.math.add_25/Add", "model_332/tf.math.sigmoid_12/Sigmoid"], "attr": {"T": {"type": "DT_FLOAT"}}}, {"name": "model_332/tf.compat.v1.pad_3/Pad", "op": "Pad", "input": ["model_332/tf.math.multiply_57/Mul", "model_332/tf.compat.v1.pad_3/Pad/paddings"], "attr": {"Tpaddings": {"type": "DT_INT32"}, "T": {"type": "DT_FLOAT"}}}, {"name": "model_332/tf.math.add_26/Add", "op": "_FusedConv2D", "input": ["model_332/tf.compat.v1.pad_3/Pad", "model_332/tf.nn.convolution_20/convolution/filter", "model_332/tf.math.add_26/Add/y"], "device": "/device:CPU:0", "attr": {"num_host_args": {"i": "0"}, "_input_shapes": {"list": {"shape": [{"dim": [{"size": "-27"}, {"size": "-50"}, {"size": "-51"}, {"size": "64"}]}, {"dim": [{"size": "3"}, {"size": "3"}, {"size": "64"}, {"size": "128"}]}]}}, "filter_format": {"s": "SFdJTw=="}, "data_format": {"s": "TkhXQw=="}, "fused_ops": {"list": {"s": ["Qmlhc0FkZA=="]}}, "num_args": {"i": "1"}, "strides": {"list": {"i": ["1", "2", "2", "1"]}}, "TArgs": {"list": {"type": ["DT_FLOAT"]}}, "padding": {"s": "VkFMSUQ="}, "use_cudnn_on_gpu": {"b": true}, "leakyrelu_alpha": {"f": 0.2}, "epsilon": {"f": 0.0}, "T": {"type": "DT_FLOAT"}, "explicit_paddings": {"list": {}}, "dilations": {"list": {"i": ["1", "1", "1", "1"]}}}}, {"name": "model_332/tf.math.sigmoid_13/Sigmoid", "op": "Sigmoid", "input": ["model_332/tf.math.add_26/Add"], "attr": {"_input_shapes": {"list": {"shape": [{"dim": [{"size": "-27"}, {"size": "-52"}, {"size": "-53"}, {"size": "128"}]}]}}, "T": {"type": "DT_FLOAT"}}}, {"name": "model_332/tf.math.multiply_61/Mul", "op": "Mul", "input": ["model_332/tf.math.add_26/Add", "model_332/tf.math.sigmoid_13/Sigmoid"], "attr": {"T": {"type": "DT_FLOAT"}}}, {"name": "model_332/tf.math.add_27/Add", "op": "_FusedConv2D", "input": ["model_332/tf.math.multiply_61/Mul", "model_332/tf.nn.convolution_21/convolution/filter", "model_332/tf.math.add_27/Add/y"], "device": "/device:CPU:0", "attr": {"num_host_args": {"i": "0"}, "_input_shapes": {"list": {"shape": [{"dim": [{"size": "-27"}, {"size": "-52"}, {"size": "-53"}, {"size": "128"}]}, {"dim": [{"size": "1"}, {"size": "1"}, {"size": "128"}, {"size": "128"}]}]}}, "filter_format": {"s": "SFdJTw=="}, "data_format": {"s": "TkhXQw=="}, "strides": {"list": {"i": ["1", "1", "1", "1"]}}, "num_args": {"i": "1"}, "fused_ops": {"list": {"s": ["Qmlhc0FkZA=="]}}, "TArgs": {"list": {"type": ["DT_FLOAT"]}}, "padding": {"s": "U0FNRQ=="}, "use_cudnn_on_gpu": {"b": true}, "leakyrelu_alpha": {"f": 0.2}, "epsilon": {"f": 0.0}, "T": {"type": "DT_FLOAT"}, "explicit_paddings": {"list": {}}, "dilations": {"list": {"i": ["1", "1", "1", "1"]}}}}, {"name": "model_332/tf.math.sigmoid_14/Sigmoid", "op": "Sigmoid", "input": ["model_332/tf.math.add_27/Add"], "attr": {"_input_shapes": {"list": {"shape": [{"dim": [{"size": "-27"}, {"size": "-52"}, {"size": "-53"}, {"size": "128"}]}]}}, "T": {"type": "DT_FLOAT"}}}, {"name": "model_332/tf.math.multiply_65/Mul", "op": "Mul", "input": ["model_332/tf.math.add_27/Add", "model_332/tf.math.sigmoid_14/Sigmoid"], "attr": {"T": {"type": "DT_FLOAT"}}}, {"name": "model_332/tf.strided_slice_4/StridedSlice", "op": "StridedSlice", "input": ["model_332/tf.math.multiply_65/Mul", "model_332/tf.strided_slice_4/ones_like/tensor", "model_332/tf.strided_slice_4/StridedSlice/end", "model_332/tf.strided_slice_4/ones_like"], "attr": {"shrink_axis_mask": {"i": "0"}, "new_axis_mask": {"i": "0"}, "Index": {"type": "DT_INT64"}, "begin_mask": {"i": "15"}, "end_mask": {"i": "7"}, "T": {"type": "DT_FLOAT"}, "ellipsis_mask": {"i": "0"}}}, {"name": "model_332/tf.strided_slice_5/StridedSlice", "op": "StridedSlice", "input": ["model_332/tf.math.multiply_65/Mul", "model_332/tf.strided_slice_5/ones_like/tensor", "model_332/tf.strided_slice_5/StridedSlice/end", "model_332/tf.strided_slice_5/ones_like"], "attr": {"shrink_axis_mask": {"i": "0"}, "Index": {"type": "DT_INT64"}, "new_axis_mask": {"i": "0"}, "begin_mask": {"i": "7"}, "end_mask": {"i": "7"}, "T": {"type": "DT_FLOAT"}, "ellipsis_mask": {"i": "0"}}}, {"name": "model_332/tf.math.add_35/Add", "op": "_FusedConv2D", "input": ["model_332/tf.strided_slice_5/StridedSlice", "model_332/tf.nn.convolution_29/convolution/filter", "model_332/tf.math.add_35/Add/y"], "device": "/device:CPU:0", "attr": {"num_host_args": {"i": "0"}, "_input_shapes": {"list": {"shape": [{"dim": [{"size": "-23"}, {"size": "64"}, {"size": "64"}, {"size": "64"}]}, {"dim": [{"size": "3"}, {"size": "3"}, {"size": "64"}, {"size": "64"}]}]}}, "filter_format": {"s": "SFdJTw=="}, "data_format": {"s": "TkhXQw=="}, "fused_ops": {"list": {"s": ["Qmlhc0FkZA=="]}}, "num_args": {"i": "1"}, "strides": {"list": {"i": ["1", "1", "1", "1"]}}, "TArgs": {"list": {"type": ["DT_FLOAT"]}}, "padding": {"s": "U0FNRQ=="}, "use_cudnn_on_gpu": {"b": true}, "leakyrelu_alpha": {"f": 0.2}, "epsilon": {"f": 0.0}, "T": {"type": "DT_FLOAT"}, "explicit_paddings": {"list": {}}, "dilations": {"list": {"i": ["1", "1", "1", "1"]}}}}, {"name": "model_332/tf.math.sigmoid_15/Sigmoid", "op": "Sigmoid", "input": ["model_332/tf.math.add_35/Add"], "attr": {"_input_shapes": {"list": {"shape": [{"dim": [{"size": "-23"}, {"size": "64"}, {"size": "64"}, {"size": "64"}]}]}}, "T": {"type": "DT_FLOAT"}}}, {"name": "model_332/tf.math.multiply_69/Mul", "op": "Mul", "input": ["model_332/tf.math.add_35/Add", "model_332/tf.math.sigmoid_15/Sigmoid"], "attr": {"T": {"type": "DT_FLOAT"}}}, {"name": "model_332/tf.math.add_43/Add", "op": "_FusedConv2D", "input": ["model_332/tf.math.multiply_69/Mul", "model_332/tf.nn.convolution_37/convolution/filter", "model_332/tf.math.add_43/Add/y"], "device": "/device:CPU:0", "attr": {"num_host_args": {"i": "0"}, "data_format": {"s": "TkhXQw=="}, "filter_format": {"s": "SFdJTw=="}, "_input_shapes": {"list": {"shape": [{"dim": [{"size": "-23"}, {"size": "64"}, {"size": "64"}, {"size": "64"}]}, {"dim": [{"size": "3"}, {"size": "3"}, {"size": "64"}, {"size": "64"}]}]}}, "strides": {"list": {"i": ["1", "1", "1", "1"]}}, "num_args": {"i": "1"}, "fused_ops": {"list": {"s": ["Qmlhc0FkZA=="]}}, "TArgs": {"list": {"type": ["DT_FLOAT"]}}, "padding": {"s": "U0FNRQ=="}, "use_cudnn_on_gpu": {"b": true}, "leakyrelu_alpha": {"f": 0.2}, "epsilon": {"f": 0.0}, "T": {"type": "DT_FLOAT"}, "explicit_paddings": {"list": {}}, "dilations": {"list": {"i": ["1", "1", "1", "1"]}}}}, {"name": "model_332/tf.math.sigmoid_16/Sigmoid", "op": "Sigmoid", "input": ["model_332/tf.math.add_43/Add"], "attr": {"_input_shapes": {"list": {"shape": [{"dim": [{"size": "-23"}, {"size": "64"}, {"size": "64"}, {"size": "64"}]}]}}, "T": {"type": "DT_FLOAT"}}}, {"name": "model_332/tf.math.multiply_73/Mul", "op": "Mul", "input": ["model_332/tf.math.add_43/Add", "model_332/tf.math.sigmoid_16/Sigmoid"], "attr": {"T": {"type": "DT_FLOAT"}}}, {"name": "model_332/tf.math.add_45/Add", "op": "AddV2", "input": ["model_332/tf.strided_slice_5/StridedSlice", "model_332/tf.math.multiply_73/Mul"], "attr": {"T": {"type": "DT_FLOAT"}}}, {"name": "model_332/tf.math.add_53/Add", "op": "_FusedConv2D", "input": ["model_332/tf.math.add_45/Add", "model_332/tf.nn.convolution_45/convolution/filter", "model_332/tf.math.add_53/Add/y"], "device": "/device:CPU:0", "attr": {"num_host_args": {"i": "0"}, "_input_shapes": {"list": {"shape": [{"dim": [{"size": "-23"}, {"size": "64"}, {"size": "64"}, {"size": "64"}]}, {"dim": [{"size": "3"}, {"size": "3"}, {"size": "64"}, {"size": "64"}]}]}}, "filter_format": {"s": "SFdJTw=="}, "data_format": {"s": "TkhXQw=="}, "strides": {"list": {"i": ["1", "1", "1", "1"]}}, "num_args": {"i": "1"}, "fused_ops": {"list": {"s": ["Qmlhc0FkZA=="]}}, "TArgs": {"list": {"type": ["DT_FLOAT"]}}, "padding": {"s": "U0FNRQ=="}, "use_cudnn_on_gpu": {"b": true}, "leakyrelu_alpha": {"f": 0.2}, "epsilon": {"f": 0.0}, "T": {"type": "DT_FLOAT"}, "explicit_paddings": {"list": {}}, "dilations": {"list": {"i": ["1", "1", "1", "1"]}}}}, {"name": "model_332/tf.math.sigmoid_17/Sigmoid", "op": "Sigmoid", "input": ["model_332/tf.math.add_53/Add"], "attr": {"_input_shapes": {"list": {"shape": [{"dim": [{"size": "-23"}, {"size": "64"}, {"size": "64"}, {"size": "64"}]}]}}, "T": {"type": "DT_FLOAT"}}}, {"name": "model_332/tf.math.multiply_79/Mul", "op": "Mul", "input": ["model_332/tf.math.add_53/Add", "model_332/tf.math.sigmoid_17/Sigmoid"], "attr": {"T": {"type": "DT_FLOAT"}}}, {"name": "model_332/tf.math.add_61/Add", "op": "_FusedConv2D", "input": ["model_332/tf.math.multiply_79/Mul", "model_332/tf.nn.convolution_53/convolution/filter", "model_332/tf.math.add_61/Add/y"], "device": "/device:CPU:0", "attr": {"num_host_args": {"i": "0"}, "_input_shapes": {"list": {"shape": [{"dim": [{"size": "-23"}, {"size": "64"}, {"size": "64"}, {"size": "64"}]}, {"dim": [{"size": "3"}, {"size": "3"}, {"size": "64"}, {"size": "64"}]}]}}, "filter_format": {"s": "SFdJTw=="}, "data_format": {"s": "TkhXQw=="}, "fused_ops": {"list": {"s": ["Qmlhc0FkZA=="]}}, "num_args": {"i": "1"}, "strides": {"list": {"i": ["1", "1", "1", "1"]}}, "TArgs": {"list": {"type": ["DT_FLOAT"]}}, "padding": {"s": "U0FNRQ=="}, "use_cudnn_on_gpu": {"b": true}, "leakyrelu_alpha": {"f": 0.2}, "epsilon": {"f": 0.0}, "T": {"type": "DT_FLOAT"}, "explicit_paddings": {"list": {}}, "dilations": {"list": {"i": ["1", "1", "1", "1"]}}}}, {"name": "model_332/tf.math.sigmoid_18/Sigmoid", "op": "Sigmoid", "input": ["model_332/tf.math.add_61/Add"], "attr": {"_input_shapes": {"list": {"shape": [{"dim": [{"size": "-23"}, {"size": "64"}, {"size": "64"}, {"size": "64"}]}]}}, "T": {"type": "DT_FLOAT"}}}, {"name": "model_332/tf.math.multiply_83/Mul", "op": "Mul", "input": ["model_332/tf.math.add_61/Add", "model_332/tf.math.sigmoid_18/Sigmoid"], "attr": {"T": {"type": "DT_FLOAT"}}}, {"name": "model_332/tf.math.add_63/Add", "op": "AddV2", "input": ["model_332/tf.math.add_45/Add", "model_332/tf.math.multiply_83/Mul"], "attr": {"T": {"type": "DT_FLOAT"}}}, {"name": "model_332/tf.concat_2/concat", "op": "ConcatV2", "input": ["model_332/tf.strided_slice_4/StridedSlice", "model_332/tf.strided_slice_5/StridedSlice", "model_332/tf.math.add_45/Add", "model_332/tf.math.add_63/Add", "model_332/tf.concat_2/concat/axis"], "attr": {"N": {"i": "4"}, "T": {"type": "DT_FLOAT"}, "Tidx": {"type": "DT_INT32"}}}, {"name": "model_332/tf.math.add_64/Add", "op": "_FusedConv2D", "input": ["model_332/tf.concat_2/concat", "model_332/tf.nn.convolution_54/convolution/filter", "model_332/tf.math.add_64/Add/y"], "device": "/device:CPU:0", "attr": {"num_host_args": {"i": "0"}, "_input_shapes": {"list": {"shape": [{"dim": [{"size": "-23"}, {"size": "64"}, {"size": "64"}, {"size": "256"}]}, {"dim": [{"size": "1"}, {"size": "1"}, {"size": "256"}, {"size": "128"}]}]}}, "filter_format": {"s": "SFdJTw=="}, "data_format": {"s": "TkhXQw=="}, "fused_ops": {"list": {"s": ["Qmlhc0FkZA=="]}}, "num_args": {"i": "1"}, "strides": {"list": {"i": ["1", "1", "1", "1"]}}, "TArgs": {"list": {"type": ["DT_FLOAT"]}}, "padding": {"s": "U0FNRQ=="}, "use_cudnn_on_gpu": {"b": true}, "leakyrelu_alpha": {"f": 0.2}, "epsilon": {"f": 0.0}, "T": {"type": "DT_FLOAT"}, "explicit_paddings": {"list": {}}, "dilations": {"list": {"i": ["1", "1", "1", "1"]}}}}, {"name": "model_332/tf.math.sigmoid_19/Sigmoid", "op": "Sigmoid", "input": ["model_332/tf.math.add_64/Add"], "attr": {"_input_shapes": {"list": {"shape": [{"dim": [{"size": "-23"}, {"size": "64"}, {"size": "64"}, {"size": "128"}]}]}}, "T": {"type": "DT_FLOAT"}}}, {"name": "model_332/tf.math.multiply_89/Mul", "op": "Mul", "input": ["model_332/tf.math.add_64/Add", "model_332/tf.math.sigmoid_19/Sigmoid"], "attr": {"T": {"type": "DT_FLOAT"}}}, {"name": "model_332/tf.compat.v1.pad_4/Pad", "op": "Pad", "input": ["model_332/tf.math.multiply_89/Mul", "model_332/tf.compat.v1.pad_4/Pad/paddings"], "attr": {"Tpaddings": {"type": "DT_INT32"}, "T": {"type": "DT_FLOAT"}}}, {"name": "model_332/tf.math.add_65/Add", "op": "_FusedConv2D", "input": ["model_332/tf.compat.v1.pad_4/Pad", "model_332/tf.nn.convolution_55/convolution/filter", "model_332/tf.math.add_65/Add/y"], "device": "/device:CPU:0", "attr": {"num_host_args": {"i": "0"}, "_input_shapes": {"list": {"shape": [{"dim": [{"size": "-23"}, {"size": "-54"}, {"size": "-55"}, {"size": "128"}]}, {"dim": [{"size": "3"}, {"size": "3"}, {"size": "128"}, {"size": "256"}]}]}}, "filter_format": {"s": "SFdJTw=="}, "data_format": {"s": "TkhXQw=="}, "fused_ops": {"list": {"s": ["Qmlhc0FkZA=="]}}, "num_args": {"i": "1"}, "strides": {"list": {"i": ["1", "2", "2", "1"]}}, "TArgs": {"list": {"type": ["DT_FLOAT"]}}, "padding": {"s": "VkFMSUQ="}, "use_cudnn_on_gpu": {"b": true}, "leakyrelu_alpha": {"f": 0.2}, "epsilon": {"f": 0.0}, "T": {"type": "DT_FLOAT"}, "explicit_paddings": {"list": {}}, "dilations": {"list": {"i": ["1", "1", "1", "1"]}}}}, {"name": "model_332/tf.math.sigmoid_20/Sigmoid", "op": "Sigmoid", "input": ["model_332/tf.math.add_65/Add"], "attr": {"_input_shapes": {"list": {"shape": [{"dim": [{"size": "-23"}, {"size": "-56"}, {"size": "-57"}, {"size": "256"}]}]}}, "T": {"type": "DT_FLOAT"}}}, {"name": "model_332/tf.math.multiply_93/Mul", "op": "Mul", "input": ["model_332/tf.math.add_65/Add", "model_332/tf.math.sigmoid_20/Sigmoid"], "attr": {"T": {"type": "DT_FLOAT"}}}, {"name": "model_332/tf.math.add_66/Add", "op": "_FusedConv2D", "input": ["model_332/tf.math.multiply_93/Mul", "model_332/tf.nn.convolution_56/convolution/filter", "model_332/tf.math.add_66/Add/y"], "device": "/device:CPU:0", "attr": {"num_host_args": {"i": "0"}, "data_format": {"s": "TkhXQw=="}, "filter_format": {"s": "SFdJTw=="}, "_input_shapes": {"list": {"shape": [{"dim": [{"size": "-23"}, {"size": "-56"}, {"size": "-57"}, {"size": "256"}]}, {"dim": [{"size": "1"}, {"size": "1"}, {"size": "256"}, {"size": "256"}]}]}}, "strides": {"list": {"i": ["1", "1", "1", "1"]}}, "num_args": {"i": "1"}, "fused_ops": {"list": {"s": ["Qmlhc0FkZA=="]}}, "TArgs": {"list": {"type": ["DT_FLOAT"]}}, "padding": {"s": "U0FNRQ=="}, "use_cudnn_on_gpu": {"b": true}, "leakyrelu_alpha": {"f": 0.2}, "epsilon": {"f": 0.0}, "T": {"type": "DT_FLOAT"}, "explicit_paddings": {"list": {}}, "dilations": {"list": {"i": ["1", "1", "1", "1"]}}}}, {"name": "model_332/tf.math.sigmoid_21/Sigmoid", "op": "Sigmoid", "input": ["model_332/tf.math.add_66/Add"], "attr": {"_input_shapes": {"list": {"shape": [{"dim": [{"size": "-23"}, {"size": "-56"}, {"size": "-57"}, {"size": "256"}]}]}}, "T": {"type": "DT_FLOAT"}}}, {"name": "model_332/tf.math.multiply_97/Mul", "op": "Mul", "input": ["model_332/tf.math.add_66/Add", "model_332/tf.math.sigmoid_21/Sigmoid"], "attr": {"T": {"type": "DT_FLOAT"}}}, {"name": "model_332/tf.strided_slice_6/StridedSlice", "op": "StridedSlice", "input": ["model_332/tf.math.multiply_97/Mul", "model_332/tf.strided_slice_6/ones_like/tensor", "model_332/tf.strided_slice_6/StridedSlice/end", "model_332/tf.strided_slice_6/ones_like"], "attr": {"shrink_axis_mask": {"i": "0"}, "new_axis_mask": {"i": "0"}, "Index": {"type": "DT_INT64"}, "begin_mask": {"i": "15"}, "end_mask": {"i": "7"}, "T": {"type": "DT_FLOAT"}, "ellipsis_mask": {"i": "0"}}}, {"name": "model_332/tf.strided_slice_7/StridedSlice", "op": "StridedSlice", "input": ["model_332/tf.math.multiply_97/Mul", "model_332/tf.strided_slice_7/ones_like/tensor", "model_332/tf.strided_slice_7/StridedSlice/end", "model_332/tf.strided_slice_7/ones_like"], "attr": {"shrink_axis_mask": {"i": "0"}, "new_axis_mask": {"i": "0"}, "Index": {"type": "DT_INT64"}, "begin_mask": {"i": "7"}, "T": {"type": "DT_FLOAT"}, "end_mask": {"i": "7"}, "ellipsis_mask": {"i": "0"}}}, {"name": "model_332/tf.math.add_67/Add", "op": "_FusedConv2D", "input": ["model_332/tf.strided_slice_7/StridedSlice", "model_332/tf.nn.convolution_57/convolution/filter", "model_332/tf.math.add_67/Add/y"], "device": "/device:CPU:0", "attr": {"num_host_args": {"i": "0"}, "data_format": {"s": "TkhXQw=="}, "filter_format": {"s": "SFdJTw=="}, "_input_shapes": {"list": {"shape": [{"dim": [{"size": "-23"}, {"size": "32"}, {"size": "32"}, {"size": "128"}]}, {"dim": [{"size": "3"}, {"size": "3"}, {"size": "128"}, {"size": "128"}]}]}}, "fused_ops": {"list": {"s": ["Qmlhc0FkZA=="]}}, "num_args": {"i": "1"}, "strides": {"list": {"i": ["1", "1", "1", "1"]}}, "TArgs": {"list": {"type": ["DT_FLOAT"]}}, "padding": {"s": "U0FNRQ=="}, "use_cudnn_on_gpu": {"b": true}, "leakyrelu_alpha": {"f": 0.2}, "epsilon": {"f": 0.0}, "T": {"type": "DT_FLOAT"}, "explicit_paddings": {"list": {}}, "dilations": {"list": {"i": ["1", "1", "1", "1"]}}}}, {"name": "model_332/tf.math.sigmoid_22/Sigmoid", "op": "Sigmoid", "input": ["model_332/tf.math.add_67/Add"], "attr": {"_input_shapes": {"list": {"shape": [{"dim": [{"size": "-23"}, {"size": "32"}, {"size": "32"}, {"size": "128"}]}]}}, "T": {"type": "DT_FLOAT"}}}, {"name": "model_332/tf.math.multiply_101/Mul", "op": "Mul", "input": ["model_332/tf.math.add_67/Add", "model_332/tf.math.sigmoid_22/Sigmoid"], "attr": {"T": {"type": "DT_FLOAT"}}}, {"name": "model_332/tf.math.add_68/Add", "op": "_FusedConv2D", "input": ["model_332/tf.math.multiply_101/Mul", "model_332/tf.nn.convolution_58/convolution/filter", "model_332/tf.math.add_68/Add/y"], "device": "/device:CPU:0", "attr": {"num_host_args": {"i": "0"}, "_input_shapes": {"list": {"shape": [{"dim": [{"size": "-23"}, {"size": "32"}, {"size": "32"}, {"size": "128"}]}, {"dim": [{"size": "3"}, {"size": "3"}, {"size": "128"}, {"size": "128"}]}]}}, "filter_format": {"s": "SFdJTw=="}, "data_format": {"s": "TkhXQw=="}, "fused_ops": {"list": {"s": ["Qmlhc0FkZA=="]}}, "num_args": {"i": "1"}, "strides": {"list": {"i": ["1", "1", "1", "1"]}}, "TArgs": {"list": {"type": ["DT_FLOAT"]}}, "padding": {"s": "U0FNRQ=="}, "use_cudnn_on_gpu": {"b": true}, "leakyrelu_alpha": {"f": 0.2}, "epsilon": {"f": 0.0}, "T": {"type": "DT_FLOAT"}, "explicit_paddings": {"list": {}}, "dilations": {"list": {"i": ["1", "1", "1", "1"]}}}}, {"name": "model_332/tf.math.sigmoid_23/Sigmoid", "op": "Sigmoid", "input": ["model_332/tf.math.add_68/Add"], "attr": {"_input_shapes": {"list": {"shape": [{"dim": [{"size": "-23"}, {"size": "32"}, {"size": "32"}, {"size": "128"}]}]}}, "T": {"type": "DT_FLOAT"}}}, {"name": "model_332/tf.math.multiply_105/Mul", "op": "Mul", "input": ["model_332/tf.math.add_68/Add", "model_332/tf.math.sigmoid_23/Sigmoid"], "attr": {"T": {"type": "DT_FLOAT"}}}, {"name": "model_332/tf.math.add_70/Add", "op": "AddV2", "input": ["model_332/tf.strided_slice_7/StridedSlice", "model_332/tf.math.multiply_105/Mul"], "attr": {"T": {"type": "DT_FLOAT"}}}, {"name": "model_332/tf.concat_3/concat", "op": "ConcatV2", "input": ["model_332/tf.strided_slice_6/StridedSlice", "model_332/tf.strided_slice_7/StridedSlice", "model_332/tf.math.add_70/Add", "model_332/tf.concat_3/concat/axis"], "attr": {"N": {"i": "3"}, "T": {"type": "DT_FLOAT"}, "Tidx": {"type": "DT_INT32"}}}, {"name": "model_332/tf.math.add_71/Add", "op": "_FusedConv2D", "input": ["model_332/tf.concat_3/concat", "model_332/tf.nn.convolution_59/convolution/filter", "model_332/tf.math.add_71/Add/y"], "device": "/device:CPU:0", "attr": {"num_host_args": {"i": "0"}, "_input_shapes": {"list": {"shape": [{"dim": [{"size": "-23"}, {"size": "32"}, {"size": "32"}, {"size": "384"}]}, {"dim": [{"size": "1"}, {"size": "1"}, {"size": "384"}, {"size": "256"}]}]}}, "filter_format": {"s": "SFdJTw=="}, "data_format": {"s": "TkhXQw=="}, "strides": {"list": {"i": ["1", "1", "1", "1"]}}, "num_args": {"i": "1"}, "fused_ops": {"list": {"s": ["Qmlhc0FkZA=="]}}, "TArgs": {"list": {"type": ["DT_FLOAT"]}}, "padding": {"s": "U0FNRQ=="}, "use_cudnn_on_gpu": {"b": true}, "leakyrelu_alpha": {"f": 0.2}, "epsilon": {"f": 0.0}, "T": {"type": "DT_FLOAT"}, "explicit_paddings": {"list": {}}, "dilations": {"list": {"i": ["1", "1", "1", "1"]}}}}, {"name": "model_332/tf.math.sigmoid_24/Sigmoid", "op": "Sigmoid", "input": ["model_332/tf.math.add_71/Add"], "attr": {"_input_shapes": {"list": {"shape": [{"dim": [{"size": "-23"}, {"size": "32"}, {"size": "32"}, {"size": "256"}]}]}}, "T": {"type": "DT_FLOAT"}}}, {"name": "model_332/tf.math.multiply_111/Mul", "op": "Mul", "input": ["model_332/tf.math.add_71/Add", "model_332/tf.math.sigmoid_24/Sigmoid"], "attr": {"T": {"type": "DT_FLOAT"}}}, {"name": "model_332/tf.math.add_72/Add", "op": "_FusedConv2D", "input": ["model_332/tf.math.multiply_111/Mul", "model_332/tf.nn.convolution_60/convolution/filter", "model_332/tf.math.add_72/Add/y"], "device": "/device:CPU:0", "attr": {"num_host_args": {"i": "0"}, "_input_shapes": {"list": {"shape": [{"dim": [{"size": "-23"}, {"size": "32"}, {"size": "32"}, {"size": "256"}]}, {"dim": [{"size": "1"}, {"size": "1"}, {"size": "256"}, {"size": "128"}]}]}}, "filter_format": {"s": "SFdJTw=="}, "data_format": {"s": "TkhXQw=="}, "fused_ops": {"list": {"s": ["Qmlhc0FkZA=="]}}, "num_args": {"i": "1"}, "strides": {"list": {"i": ["1", "1", "1", "1"]}}, "TArgs": {"list": {"type": ["DT_FLOAT"]}}, "padding": {"s": "U0FNRQ=="}, "use_cudnn_on_gpu": {"b": true}, "leakyrelu_alpha": {"f": 0.2}, "epsilon": {"f": 0.0}, "T": {"type": "DT_FLOAT"}, "explicit_paddings": {"list": {}}, "dilations": {"list": {"i": ["1", "1", "1", "1"]}}}}, {"name": "model_332/tf.math.sigmoid_25/Sigmoid", "op": "Sigmoid", "input": ["model_332/tf.math.add_72/Add"], "attr": {"_input_shapes": {"list": {"shape": [{"dim": [{"size": "-23"}, {"size": "32"}, {"size": "32"}, {"size": "128"}]}]}}, "T": {"type": "DT_FLOAT"}}}, {"name": "model_332/tf.math.multiply_115/Mul", "op": "Mul", "input": ["model_332/tf.math.add_72/Add", "model_332/tf.math.sigmoid_25/Sigmoid"], "attr": {"T": {"type": "DT_FLOAT"}}}, {"name": "model_332/tf.compat.v1.nn.pool/max_pool", "op": "MaxPool", "input": ["model_332/tf.math.multiply_115/Mul"], "attr": {"ksize": {"list": {"i": ["1", "5", "5", "1"]}}, "data_format": {"s": "TkhXQw=="}, "T": {"type": "DT_FLOAT"}, "explicit_paddings": {"list": {}}, "padding": {"s": "U0FNRQ=="}, "strides": {"list": {"i": ["1", "1", "1", "1"]}}}}, {"name": "model_332/tf.compat.v1.nn.pool_1/max_pool", "op": "MaxPool", "input": ["model_332/tf.compat.v1.nn.pool/max_pool"], "attr": {"padding": {"s": "U0FNRQ=="}, "data_format": {"s": "TkhXQw=="}, "T": {"type": "DT_FLOAT"}, "explicit_paddings": {"list": {}}, "ksize": {"list": {"i": ["1", "5", "5", "1"]}}, "strides": {"list": {"i": ["1", "1", "1", "1"]}}}}, {"name": "model_332/tf.compat.v1.nn.pool_2/max_pool", "op": "MaxPool", "input": ["model_332/tf.compat.v1.nn.pool_1/max_pool"], "attr": {"ksize": {"list": {"i": ["1", "5", "5", "1"]}}, "data_format": {"s": "TkhXQw=="}, "T": {"type": "DT_FLOAT"}, "explicit_paddings": {"list": {}}, "padding": {"s": "U0FNRQ=="}, "strides": {"list": {"i": ["1", "1", "1", "1"]}}}}, {"name": "model_332/tf.concat_4/concat", "op": "ConcatV2", "input": ["model_332/tf.math.multiply_115/Mul", "model_332/tf.compat.v1.nn.pool/max_pool", "model_332/tf.compat.v1.nn.pool_1/max_pool", "model_332/tf.compat.v1.nn.pool_2/max_pool", "model_332/tf.concat_4/concat/axis"], "attr": {"N": {"i": "4"}, "T": {"type": "DT_FLOAT"}, "Tidx": {"type": "DT_INT32"}}}, {"name": "model_332/tf.math.add_73/Add", "op": "_FusedConv2D", "input": ["model_332/tf.concat_4/concat", "model_332/tf.nn.convolution_61/convolution/filter", "model_332/tf.math.add_73/Add/y"], "device": "/device:CPU:0", "attr": {"num_host_args": {"i": "0"}, "_input_shapes": {"list": {"shape": [{"dim": [{"size": "-23"}, {"size": "32"}, {"size": "32"}, {"size": "512"}]}, {"dim": [{"size": "1"}, {"size": "1"}, {"size": "512"}, {"size": "256"}]}]}}, "filter_format": {"s": "SFdJTw=="}, "data_format": {"s": "TkhXQw=="}, "strides": {"list": {"i": ["1", "1", "1", "1"]}}, "num_args": {"i": "1"}, "fused_ops": {"list": {"s": ["Qmlhc0FkZA=="]}}, "TArgs": {"list": {"type": ["DT_FLOAT"]}}, "padding": {"s": "U0FNRQ=="}, "use_cudnn_on_gpu": {"b": true}, "leakyrelu_alpha": {"f": 0.2}, "epsilon": {"f": 0.0}, "T": {"type": "DT_FLOAT"}, "explicit_paddings": {"list": {}}, "dilations": {"list": {"i": ["1", "1", "1", "1"]}}}}, {"name": "model_332/tf.math.sigmoid_26/Sigmoid", "op": "Sigmoid", "input": ["model_332/tf.math.add_73/Add"], "attr": {"_input_shapes": {"list": {"shape": [{"dim": [{"size": "-23"}, {"size": "32"}, {"size": "32"}, {"size": "256"}]}]}}, "T": {"type": "DT_FLOAT"}}}, {"name": "model_332/tf.math.multiply_119/Mul", "op": "Mul", "input": ["model_332/tf.math.add_73/Add", "model_332/tf.math.sigmoid_26/Sigmoid"], "attr": {"T": {"type": "DT_FLOAT"}}}, {"name": "model_332/tf.image.resize/resize/ResizeNearestNeighbor", "op": "ResizeNearestNeighbor", "input": ["model_332/tf.math.multiply_119/Mul", "model_332/tf.image.resize/resize/size"], "attr": {"T": {"type": "DT_FLOAT"}, "align_corners": {"b": false}, "half_pixel_centers": {"b": true}}}, {"name": "model_332/tf.concat_5/concat", "op": "ConcatV2", "input": ["model_332/tf.image.resize/resize/ResizeNearestNeighbor", "model_332/tf.math.multiply_89/Mul", "model_332/tf.concat_5/concat/axis"], "attr": {"N": {"i": "2"}, "Tidx": {"type": "DT_INT32"}, "T": {"type": "DT_FLOAT"}}}, {"name": "model_332/tf.math.add_74/Add", "op": "_FusedConv2D", "input": ["model_332/tf.concat_5/concat", "model_332/tf.nn.convolution_62/convolution/filter", "model_332/tf.math.add_74/Add/y"], "device": "/device:CPU:0", "attr": {"num_host_args": {"i": "0"}, "data_format": {"s": "TkhXQw=="}, "filter_format": {"s": "SFdJTw=="}, "_input_shapes": {"list": {"shape": [{"dim": [{"size": "-23"}, {"size": "64"}, {"size": "64"}, {"size": "384"}]}, {"dim": [{"size": "1"}, {"size": "1"}, {"size": "384"}, {"size": "128"}]}]}}, "fused_ops": {"list": {"s": ["Qmlhc0FkZA=="]}}, "num_args": {"i": "1"}, "strides": {"list": {"i": ["1", "1", "1", "1"]}}, "TArgs": {"list": {"type": ["DT_FLOAT"]}}, "padding": {"s": "U0FNRQ=="}, "use_cudnn_on_gpu": {"b": true}, "leakyrelu_alpha": {"f": 0.2}, "epsilon": {"f": 0.0}, "T": {"type": "DT_FLOAT"}, "explicit_paddings": {"list": {}}, "dilations": {"list": {"i": ["1", "1", "1", "1"]}}}}, {"name": "model_332/tf.math.sigmoid_27/Sigmoid", "op": "Sigmoid", "input": ["model_332/tf.math.add_74/Add"], "attr": {"_input_shapes": {"list": {"shape": [{"dim": [{"size": "-23"}, {"size": "64"}, {"size": "64"}, {"size": "128"}]}]}}, "T": {"type": "DT_FLOAT"}}}, {"name": "model_332/tf.math.multiply_123/Mul", "op": "Mul", "input": ["model_332/tf.math.add_74/Add", "model_332/tf.math.sigmoid_27/Sigmoid"], "attr": {"T": {"type": "DT_FLOAT"}}}, {"name": "model_332/tf.strided_slice_8/StridedSlice", "op": "StridedSlice", "input": ["model_332/tf.math.multiply_123/Mul", "model_332/tf.strided_slice_8/ones_like/tensor", "model_332/tf.strided_slice_8/StridedSlice/end", "model_332/tf.strided_slice_8/ones_like"], "attr": {"shrink_axis_mask": {"i": "0"}, "new_axis_mask": {"i": "0"}, "Index": {"type": "DT_INT64"}, "begin_mask": {"i": "15"}, "T": {"type": "DT_FLOAT"}, "end_mask": {"i": "7"}, "ellipsis_mask": {"i": "0"}}}, {"name": "model_332/tf.strided_slice_9/StridedSlice", "op": "StridedSlice", "input": ["model_332/tf.math.multiply_123/Mul", "model_332/tf.strided_slice_9/ones_like/tensor", "model_332/tf.strided_slice_9/StridedSlice/end", "model_332/tf.strided_slice_9/ones_like"], "attr": {"shrink_axis_mask": {"i": "0"}, "Index": {"type": "DT_INT64"}, "new_axis_mask": {"i": "0"}, "begin_mask": {"i": "7"}, "end_mask": {"i": "7"}, "T": {"type": "DT_FLOAT"}, "ellipsis_mask": {"i": "0"}}}, {"name": "model_332/tf.math.add_82/Add", "op": "_FusedConv2D", "input": ["model_332/tf.strided_slice_9/StridedSlice", "model_332/tf.nn.convolution_70/convolution/filter", "model_332/tf.math.add_82/Add/y"], "device": "/device:CPU:0", "attr": {"num_host_args": {"i": "0"}, "data_format": {"s": "TkhXQw=="}, "filter_format": {"s": "SFdJTw=="}, "_input_shapes": {"list": {"shape": [{"dim": [{"size": "-27"}, {"size": "64"}, {"size": "64"}, {"size": "64"}]}, {"dim": [{"size": "3"}, {"size": "3"}, {"size": "64"}, {"size": "64"}]}]}}, "fused_ops": {"list": {"s": ["Qmlhc0FkZA=="]}}, "num_args": {"i": "1"}, "strides": {"list": {"i": ["1", "1", "1", "1"]}}, "TArgs": {"list": {"type": ["DT_FLOAT"]}}, "padding": {"s": "U0FNRQ=="}, "use_cudnn_on_gpu": {"b": true}, "leakyrelu_alpha": {"f": 0.2}, "epsilon": {"f": 0.0}, "T": {"type": "DT_FLOAT"}, "explicit_paddings": {"list": {}}, "dilations": {"list": {"i": ["1", "1", "1", "1"]}}}}, {"name": "model_332/tf.math.sigmoid_28/Sigmoid", "op": "Sigmoid", "input": ["model_332/tf.math.add_82/Add"], "attr": {"_input_shapes": {"list": {"shape": [{"dim": [{"size": "-27"}, {"size": "64"}, {"size": "64"}, {"size": "64"}]}]}}, "T": {"type": "DT_FLOAT"}}}, {"name": "model_332/tf.math.multiply_127/Mul", "op": "Mul", "input": ["model_332/tf.math.add_82/Add", "model_332/tf.math.sigmoid_28/Sigmoid"], "attr": {"T": {"type": "DT_FLOAT"}}}, {"name": "model_332/tf.math.add_90/Add", "op": "_FusedConv2D", "input": ["model_332/tf.math.multiply_127/Mul", "model_332/tf.nn.convolution_78/convolution/filter", "model_332/tf.math.add_90/Add/y"], "device": "/device:CPU:0", "attr": {"num_host_args": {"i": "0"}, "_input_shapes": {"list": {"shape": [{"dim": [{"size": "-27"}, {"size": "64"}, {"size": "64"}, {"size": "64"}]}, {"dim": [{"size": "3"}, {"size": "3"}, {"size": "64"}, {"size": "64"}]}]}}, "filter_format": {"s": "SFdJTw=="}, "data_format": {"s": "TkhXQw=="}, "fused_ops": {"list": {"s": ["Qmlhc0FkZA=="]}}, "num_args": {"i": "1"}, "strides": {"list": {"i": ["1", "1", "1", "1"]}}, "TArgs": {"list": {"type": ["DT_FLOAT"]}}, "padding": {"s": "U0FNRQ=="}, "use_cudnn_on_gpu": {"b": true}, "leakyrelu_alpha": {"f": 0.2}, "epsilon": {"f": 0.0}, "T": {"type": "DT_FLOAT"}, "explicit_paddings": {"list": {}}, "dilations": {"list": {"i": ["1", "1", "1", "1"]}}}}, {"name": "model_332/tf.math.sigmoid_29/Sigmoid", "op": "Sigmoid", "input": ["model_332/tf.math.add_90/Add"], "attr": {"_input_shapes": {"list": {"shape": [{"dim": [{"size": "-27"}, {"size": "64"}, {"size": "64"}, {"size": "64"}]}]}}, "T": {"type": "DT_FLOAT"}}}, {"name": "model_332/tf.math.multiply_131/Mul", "op": "Mul", "input": ["model_332/tf.math.add_90/Add", "model_332/tf.math.sigmoid_29/Sigmoid"], "attr": {"T": {"type": "DT_FLOAT"}}}, {"name": "model_332/tf.concat_6/concat", "op": "ConcatV2", "input": ["model_332/tf.strided_slice_8/StridedSlice", "model_332/tf.strided_slice_9/StridedSlice", "model_332/tf.math.multiply_131/Mul", "model_332/tf.concat_6/concat/axis"], "attr": {"N": {"i": "3"}, "T": {"type": "DT_FLOAT"}, "Tidx": {"type": "DT_INT32"}}}, {"name": "model_332/tf.math.add_91/Add", "op": "_FusedConv2D", "input": ["model_332/tf.concat_6/concat", "model_332/tf.nn.convolution_79/convolution/filter", "model_332/tf.math.add_91/Add/y"], "device": "/device:CPU:0", "attr": {"num_host_args": {"i": "0"}, "_input_shapes": {"list": {"shape": [{"dim": [{"size": "-27"}, {"size": "64"}, {"size": "64"}, {"size": "192"}]}, {"dim": [{"size": "1"}, {"size": "1"}, {"size": "192"}, {"size": "128"}]}]}}, "filter_format": {"s": "SFdJTw=="}, "data_format": {"s": "TkhXQw=="}, "strides": {"list": {"i": ["1", "1", "1", "1"]}}, "num_args": {"i": "1"}, "fused_ops": {"list": {"s": ["Qmlhc0FkZA=="]}}, "TArgs": {"list": {"type": ["DT_FLOAT"]}}, "padding": {"s": "U0FNRQ=="}, "use_cudnn_on_gpu": {"b": true}, "leakyrelu_alpha": {"f": 0.2}, "epsilon": {"f": 0.0}, "T": {"type": "DT_FLOAT"}, "explicit_paddings": {"list": {}}, "dilations": {"list": {"i": ["1", "1", "1", "1"]}}}}, {"name": "model_332/tf.math.sigmoid_30/Sigmoid", "op": "Sigmoid", "input": ["model_332/tf.math.add_91/Add"], "attr": {"_input_shapes": {"list": {"shape": [{"dim": [{"size": "-27"}, {"size": "64"}, {"size": "64"}, {"size": "128"}]}]}}, "T": {"type": "DT_FLOAT"}}}, {"name": "model_332/tf.math.multiply_135/Mul", "op": "Mul", "input": ["model_332/tf.math.add_91/Add", "model_332/tf.math.sigmoid_30/Sigmoid"], "attr": {"T": {"type": "DT_FLOAT"}}}, {"name": "model_332/tf.image.resize_1/resize/ResizeNearestNeighbor", "op": "ResizeNearestNeighbor", "input": ["model_332/tf.math.multiply_135/Mul", "model_332/tf.image.resize_1/resize/size"], "attr": {"T": {"type": "DT_FLOAT"}, "align_corners": {"b": false}, "half_pixel_centers": {"b": true}}}, {"name": "model_332/tf.concat_584/concat", "op": "ConcatV2", "input": ["model_332/tf.image.resize_1/resize/ResizeNearestNeighbor", "model_332/tf.math.multiply_57/Mul", "model_332/tf.concat_584/concat/axis"], "attr": {"N": {"i": "2"}, "T": {"type": "DT_FLOAT"}, "Tidx": {"type": "DT_INT32"}}}, {"name": "model_332/tf.math.add_92/Add", "op": "_FusedConv2D", "input": ["model_332/tf.concat_584/concat", "model_332/tf.nn.convolution_80/convolution/filter", "model_332/tf.math.add_92/Add/y"], "device": "/device:CPU:0", "attr": {"num_host_args": {"i": "0"}, "_input_shapes": {"list": {"shape": [{"dim": [{"size": "-27"}, {"size": "128"}, {"size": "128"}, {"size": "192"}]}, {"dim": [{"size": "1"}, {"size": "1"}, {"size": "192"}, {"size": "64"}]}]}}, "filter_format": {"s": "SFdJTw=="}, "data_format": {"s": "TkhXQw=="}, "fused_ops": {"list": {"s": ["Qmlhc0FkZA=="]}}, "num_args": {"i": "1"}, "strides": {"list": {"i": ["1", "1", "1", "1"]}}, "TArgs": {"list": {"type": ["DT_FLOAT"]}}, "padding": {"s": "U0FNRQ=="}, "use_cudnn_on_gpu": {"b": true}, "leakyrelu_alpha": {"f": 0.2}, "epsilon": {"f": 0.0}, "T": {"type": "DT_FLOAT"}, "explicit_paddings": {"list": {}}, "dilations": {"list": {"i": ["1", "1", "1", "1"]}}}}, {"name": "model_332/tf.math.sigmoid_31/Sigmoid", "op": "Sigmoid", "input": ["model_332/tf.math.add_92/Add"], "attr": {"_input_shapes": {"list": {"shape": [{"dim": [{"size": "-27"}, {"size": "128"}, {"size": "128"}, {"size": "64"}]}]}}, "T": {"type": "DT_FLOAT"}}}, {"name": "model_332/tf.math.multiply_139/Mul", "op": "Mul", "input": ["model_332/tf.math.add_92/Add", "model_332/tf.math.sigmoid_31/Sigmoid"], "attr": {"T": {"type": "DT_FLOAT"}}}, {"name": "model_332/tf.strided_slice_10/StridedSlice", "op": "StridedSlice", "input": ["model_332/tf.math.multiply_139/Mul", "model_332/tf.strided_slice_10/ones_like/tensor", "model_332/tf.strided_slice_10/StridedSlice/end", "model_332/tf.strided_slice_10/ones_like"], "attr": {"shrink_axis_mask": {"i": "0"}, "new_axis_mask": {"i": "0"}, "Index": {"type": "DT_INT64"}, "begin_mask": {"i": "15"}, "T": {"type": "DT_FLOAT"}, "end_mask": {"i": "7"}, "ellipsis_mask": {"i": "0"}}}, {"name": "model_332/tf.strided_slice_11/StridedSlice", "op": "StridedSlice", "input": ["model_332/tf.math.multiply_139/Mul", "model_332/tf.strided_slice_11/ones_like/tensor", "model_332/tf.strided_slice_11/StridedSlice/end", "model_332/tf.strided_slice_11/ones_like"], "attr": {"shrink_axis_mask": {"i": "0"}, "new_axis_mask": {"i": "0"}, "Index": {"type": "DT_INT64"}, "begin_mask": {"i": "7"}, "end_mask": {"i": "7"}, "T": {"type": "DT_FLOAT"}, "ellipsis_mask": {"i": "0"}}}, {"name": "model_332/tf.math.add_93/Add", "op": "_FusedConv2D", "input": ["model_332/tf.strided_slice_11/StridedSlice", "model_332/tf.nn.convolution_81/convolution/filter", "model_332/tf.math.add_93/Add/y"], "device": "/device:CPU:0", "attr": {"num_host_args": {"i": "0"}, "_input_shapes": {"list": {"shape": [{"dim": [{"size": "-27"}, {"size": "128"}, {"size": "128"}, {"size": "32"}]}, {"dim": [{"size": "3"}, {"size": "3"}, {"size": "32"}, {"size": "32"}]}]}}, "filter_format": {"s": "SFdJTw=="}, "data_format": {"s": "TkhXQw=="}, "fused_ops": {"list": {"s": ["Qmlhc0FkZA=="]}}, "num_args": {"i": "1"}, "strides": {"list": {"i": ["1", "1", "1", "1"]}}, "TArgs": {"list": {"type": ["DT_FLOAT"]}}, "padding": {"s": "U0FNRQ=="}, "use_cudnn_on_gpu": {"b": true}, "leakyrelu_alpha": {"f": 0.2}, "epsilon": {"f": 0.0}, "T": {"type": "DT_FLOAT"}, "explicit_paddings": {"list": {}}, "dilations": {"list": {"i": ["1", "1", "1", "1"]}}}}, {"name": "model_332/tf.math.sigmoid_32/Sigmoid", "op": "Sigmoid", "input": ["model_332/tf.math.add_93/Add"], "attr": {"_input_shapes": {"list": {"shape": [{"dim": [{"size": "-27"}, {"size": "128"}, {"size": "128"}, {"size": "32"}]}]}}, "T": {"type": "DT_FLOAT"}}}, {"name": "model_332/tf.math.multiply_143/Mul", "op": "Mul", "input": ["model_332/tf.math.add_93/Add", "model_332/tf.math.sigmoid_32/Sigmoid"], "attr": {"T": {"type": "DT_FLOAT"}}}, {"name": "model_332/tf.math.add_94/Add", "op": "_FusedConv2D", "input": ["model_332/tf.math.multiply_143/Mul", "model_332/tf.nn.convolution_82/convolution/filter", "model_332/tf.math.add_94/Add/y"], "device": "/device:CPU:0", "attr": {"num_host_args": {"i": "0"}, "_input_shapes": {"list": {"shape": [{"dim": [{"size": "-27"}, {"size": "128"}, {"size": "128"}, {"size": "32"}]}, {"dim": [{"size": "3"}, {"size": "3"}, {"size": "32"}, {"size": "32"}]}]}}, "filter_format": {"s": "SFdJTw=="}, "data_format": {"s": "TkhXQw=="}, "fused_ops": {"list": {"s": ["Qmlhc0FkZA=="]}}, "num_args": {"i": "1"}, "strides": {"list": {"i": ["1", "1", "1", "1"]}}, "TArgs": {"list": {"type": ["DT_FLOAT"]}}, "padding": {"s": "U0FNRQ=="}, "use_cudnn_on_gpu": {"b": true}, "leakyrelu_alpha": {"f": 0.2}, "epsilon": {"f": 0.0}, "T": {"type": "DT_FLOAT"}, "explicit_paddings": {"list": {}}, "dilations": {"list": {"i": ["1", "1", "1", "1"]}}}}, {"name": "model_332/tf.math.sigmoid_33/Sigmoid", "op": "Sigmoid", "input": ["model_332/tf.math.add_94/Add"], "attr": {"_input_shapes": {"list": {"shape": [{"dim": [{"size": "-27"}, {"size": "128"}, {"size": "128"}, {"size": "32"}]}]}}, "T": {"type": "DT_FLOAT"}}}, {"name": "model_332/tf.math.multiply_147/Mul", "op": "Mul", "input": ["model_332/tf.math.add_94/Add", "model_332/tf.math.sigmoid_33/Sigmoid"], "attr": {"T": {"type": "DT_FLOAT"}}}, {"name": "model_332/tf.concat_585/concat", "op": "ConcatV2", "input": ["model_332/tf.strided_slice_10/StridedSlice", "model_332/tf.strided_slice_11/StridedSlice", "model_332/tf.math.multiply_147/Mul", "model_332/tf.concat_585/concat/axis"], "attr": {"N": {"i": "3"}, "T": {"type": "DT_FLOAT"}, "Tidx": {"type": "DT_INT32"}}}, {"name": "model_332/tf.math.add_95/Add", "op": "_FusedConv2D", "input": ["model_332/tf.concat_585/concat", "model_332/tf.nn.convolution_83/convolution/filter", "model_332/tf.math.add_95/Add/y"], "device": "/device:CPU:0", "attr": {"num_host_args": {"i": "0"}, "_input_shapes": {"list": {"shape": [{"dim": [{"size": "-27"}, {"size": "128"}, {"size": "128"}, {"size": "96"}]}, {"dim": [{"size": "1"}, {"size": "1"}, {"size": "96"}, {"size": "64"}]}]}}, "filter_format": {"s": "SFdJTw=="}, "data_format": {"s": "TkhXQw=="}, "fused_ops": {"list": {"s": ["Qmlhc0FkZA=="]}}, "num_args": {"i": "1"}, "strides": {"list": {"i": ["1", "1", "1", "1"]}}, "TArgs": {"list": {"type": ["DT_FLOAT"]}}, "padding": {"s": "U0FNRQ=="}, "use_cudnn_on_gpu": {"b": true}, "leakyrelu_alpha": {"f": 0.2}, "epsilon": {"f": 0.0}, "T": {"type": "DT_FLOAT"}, "explicit_paddings": {"list": {}}, "dilations": {"list": {"i": ["1", "1", "1", "1"]}}}}, {"name": "model_332/tf.math.sigmoid_34/Sigmoid", "op": "Sigmoid", "input": ["model_332/tf.math.add_95/Add"], "attr": {"_input_shapes": {"list": {"shape": [{"dim": [{"size": "-27"}, {"size": "128"}, {"size": "128"}, {"size": "64"}]}]}}, "T": {"type": "DT_FLOAT"}}}, {"name": "model_332/tf.math.multiply_151/Mul", "op": "Mul", "input": ["model_332/tf.math.add_95/Add", "model_332/tf.math.sigmoid_34/Sigmoid"], "attr": {"T": {"type": "DT_FLOAT"}}}, {"name": "model_332/tf.math.add_97/Add", "op": "_FusedConv2D", "input": ["model_332/tf.math.multiply_151/Mul", "model_332/tf.nn.convolution_85/convolution/filter", "model_332/tf.math.add_97/Add/y"], "device": "/device:CPU:0", "attr": {"num_host_args": {"i": "0"}, "_input_shapes": {"list": {"shape": [{"dim": [{"size": "-27"}, {"size": "128"}, {"size": "128"}, {"size": "64"}]}, {"dim": [{"size": "3"}, {"size": "3"}, {"size": "64"}, {"size": "64"}]}]}}, "filter_format": {"s": "SFdJTw=="}, "data_format": {"s": "TkhXQw=="}, "fused_ops": {"list": {"s": ["Qmlhc0FkZA=="]}}, "num_args": {"i": "1"}, "strides": {"list": {"i": ["1", "1", "1", "1"]}}, "TArgs": {"list": {"type": ["DT_FLOAT"]}}, "padding": {"s": "U0FNRQ=="}, "use_cudnn_on_gpu": {"b": true}, "leakyrelu_alpha": {"f": 0.2}, "epsilon": {"f": 0.0}, "T": {"type": "DT_FLOAT"}, "explicit_paddings": {"list": {}}, "dilations": {"list": {"i": ["1", "1", "1", "1"]}}}}, {"name": "model_332/tf.math.add_98/Add", "op": "_FusedConv2D", "input": ["model_332/tf.math.multiply_151/Mul", "model_332/tf.nn.convolution_86/convolution/filter", "model_332/tf.math.add_98/Add/y"], "device": "/device:CPU:0", "attr": {"num_host_args": {"i": "0"}, "data_format": {"s": "TkhXQw=="}, "filter_format": {"s": "SFdJTw=="}, "_input_shapes": {"list": {"shape": [{"dim": [{"size": "-27"}, {"size": "128"}, {"size": "128"}, {"size": "64"}]}, {"dim": [{"size": "3"}, {"size": "3"}, {"size": "64"}, {"size": "64"}]}]}}, "strides": {"list": {"i": ["1", "1", "1", "1"]}}, "num_args": {"i": "1"}, "fused_ops": {"list": {"s": ["Qmlhc0FkZA=="]}}, "TArgs": {"list": {"type": ["DT_FLOAT"]}}, "padding": {"s": "U0FNRQ=="}, "use_cudnn_on_gpu": {"b": true}, "leakyrelu_alpha": {"f": 0.2}, "epsilon": {"f": 0.0}, "T": {"type": "DT_FLOAT"}, "explicit_paddings": {"list": {}}, "dilations": {"list": {"i": ["1", "1", "1", "1"]}}}}, {"name": "model_332/tf.compat.v1.pad_5/Pad", "op": "Pad", "input": ["model_332/tf.math.multiply_151/Mul", "model_332/tf.compat.v1.pad_5/Pad/paddings"], "attr": {"Tpaddings": {"type": "DT_INT32"}, "T": {"type": "DT_FLOAT"}}}, {"name": "model_332/tf.math.sigmoid_36/Sigmoid", "op": "Sigmoid", "input": ["model_332/tf.math.add_97/Add"], "attr": {"_input_shapes": {"list": {"shape": [{"dim": [{"size": "-27"}, {"size": "128"}, {"size": "128"}, {"size": "64"}]}]}}, "T": {"type": "DT_FLOAT"}}}, {"name": "model_332/tf.math.sigmoid_37/Sigmoid", "op": "Sigmoid", "input": ["model_332/tf.math.add_98/Add"], "attr": {"_input_shapes": {"list": {"shape": [{"dim": [{"size": "-27"}, {"size": "128"}, {"size": "128"}, {"size": "64"}]}]}}, "T": {"type": "DT_FLOAT"}}}, {"name": "model_332/tf.math.add_96/Add", "op": "_FusedConv2D", "input": ["model_332/tf.compat.v1.pad_5/Pad", "model_332/tf.nn.convolution_84/convolution/filter", "model_332/tf.math.add_96/Add/y"], "device": "/device:CPU:0", "attr": {"num_host_args": {"i": "0"}, "data_format": {"s": "TkhXQw=="}, "filter_format": {"s": "SFdJTw=="}, "_input_shapes": {"list": {"shape": [{"dim": [{"size": "-27"}, {"size": "130"}, {"size": "130"}, {"size": "64"}]}, {"dim": [{"size": "3"}, {"size": "3"}, {"size": "64"}, {"size": "64"}]}]}}, "fused_ops": {"list": {"s": ["Qmlhc0FkZA=="]}}, "num_args": {"i": "1"}, "strides": {"list": {"i": ["1", "2", "2", "1"]}}, "TArgs": {"list": {"type": ["DT_FLOAT"]}}, "padding": {"s": "VkFMSUQ="}, "use_cudnn_on_gpu": {"b": true}, "leakyrelu_alpha": {"f": 0.2}, "epsilon": {"f": 0.0}, "T": {"type": "DT_FLOAT"}, "explicit_paddings": {"list": {}}, "dilations": {"list": {"i": ["1", "1", "1", "1"]}}}}, {"name": "model_332/tf.math.multiply_159/Mul", "op": "Mul", "input": ["model_332/tf.math.add_97/Add", "model_332/tf.math.sigmoid_36/Sigmoid"], "attr": {"T": {"type": "DT_FLOAT"}}}, {"name": "model_332/tf.math.multiply_163/Mul", "op": "Mul", "input": ["model_332/tf.math.add_98/Add", "model_332/tf.math.sigmoid_37/Sigmoid"], "attr": {"T": {"type": "DT_FLOAT"}}}, {"name": "model_332/tf.math.sigmoid_35/Sigmoid", "op": "Sigmoid", "input": ["model_332/tf.math.add_96/Add"], "attr": {"_input_shapes": {"list": {"shape": [{"dim": [{"size": "-27"}, {"size": "64"}, {"size": "64"}, {"size": "64"}]}]}}, "T": {"type": "DT_FLOAT"}}}, {"name": "model_332/tf.math.add_99/Add", "op": "_FusedConv2D", "input": ["model_332/tf.math.multiply_159/Mul", "model_332/tf.nn.convolution_87/convolution/filter", "model_332/tf.math.add_99/Add/y"], "device": "/device:CPU:0", "attr": {"num_host_args": {"i": "0"}, "data_format": {"s": "TkhXQw=="}, "filter_format": {"s": "SFdJTw=="}, "_input_shapes": {"list": {"shape": [{"dim": [{"size": "-27"}, {"size": "128"}, {"size": "128"}, {"size": "64"}]}, {"dim": [{"size": "3"}, {"size": "3"}, {"size": "64"}, {"size": "64"}]}]}}, "strides": {"list": {"i": ["1", "1", "1", "1"]}}, "num_args": {"i": "1"}, "fused_ops": {"list": {"s": ["Qmlhc0FkZA=="]}}, "TArgs": {"list": {"type": ["DT_FLOAT"]}}, "padding": {"s": "U0FNRQ=="}, "use_cudnn_on_gpu": {"b": true}, "leakyrelu_alpha": {"f": 0.2}, "epsilon": {"f": 0.0}, "T": {"type": "DT_FLOAT"}, "explicit_paddings": {"list": {}}, "dilations": {"list": {"i": ["1", "1", "1", "1"]}}}}, {"name": "model_332/tf.math.add_100/Add", "op": "_FusedConv2D", "input": ["model_332/tf.math.multiply_163/Mul", "model_332/tf.nn.convolution_88/convolution/filter", "model_332/tf.math.add_100/Add/y"], "device": "/device:CPU:0", "attr": {"num_host_args": {"i": "0"}, "_input_shapes": {"list": {"shape": [{"dim": [{"size": "-27"}, {"size": "128"}, {"size": "128"}, {"size": "64"}]}, {"dim": [{"size": "3"}, {"size": "3"}, {"size": "64"}, {"size": "64"}]}]}}, "filter_format": {"s": "SFdJTw=="}, "data_format": {"s": "TkhXQw=="}, "strides": {"list": {"i": ["1", "1", "1", "1"]}}, "num_args": {"i": "1"}, "fused_ops": {"list": {"s": ["Qmlhc0FkZA=="]}}, "TArgs": {"list": {"type": ["DT_FLOAT"]}}, "padding": {"s": "U0FNRQ=="}, "use_cudnn_on_gpu": {"b": true}, "leakyrelu_alpha": {"f": 0.2}, "epsilon": {"f": 0.0}, "T": {"type": "DT_FLOAT"}, "explicit_paddings": {"list": {}}, "dilations": {"list": {"i": ["1", "1", "1", "1"]}}}}, {"name": "model_332/tf.math.multiply_155/Mul", "op": "Mul", "input": ["model_332/tf.math.add_96/Add", "model_332/tf.math.sigmoid_35/Sigmoid"], "attr": {"T": {"type": "DT_FLOAT"}}}, {"name": "model_332/tf.math.sigmoid_38/Sigmoid", "op": "Sigmoid", "input": ["model_332/tf.math.add_99/Add"], "attr": {"_input_shapes": {"list": {"shape": [{"dim": [{"size": "-27"}, {"size": "128"}, {"size": "128"}, {"size": "64"}]}]}}, "T": {"type": "DT_FLOAT"}}}, {"name": "model_332/tf.math.sigmoid_39/Sigmoid", "op": "Sigmoid", "input": ["model_332/tf.math.add_100/Add"], "attr": {"_input_shapes": {"list": {"shape": [{"dim": [{"size": "-27"}, {"size": "128"}, {"size": "128"}, {"size": "64"}]}]}}, "T": {"type": "DT_FLOAT"}}}, {"name": "model_332/tf.concat_1163/concat", "op": "ConcatV2", "input": ["model_332/tf.math.multiply_155/Mul", "model_332/tf.math.multiply_135/Mul", "model_332/tf.concat_1163/concat/axis"], "attr": {"N": {"i": "2"}, "T": {"type": "DT_FLOAT"}, "Tidx": {"type": "DT_INT32"}}}, {"name": "model_332/tf.math.multiply_167/Mul", "op": "Mul", "input": ["model_332/tf.math.add_99/Add", "model_332/tf.math.sigmoid_38/Sigmoid"], "attr": {"T": {"type": "DT_FLOAT"}}}, {"name": "model_332/tf.math.multiply_171/Mul", "op": "Mul", "input": ["model_332/tf.math.add_100/Add", "model_332/tf.math.sigmoid_39/Sigmoid"], "attr": {"T": {"type": "DT_FLOAT"}}}, {"name": "model_332/tf.math.add_101/Add", "op": "_FusedConv2D", "input": ["model_332/tf.concat_1163/concat", "model_332/tf.nn.convolution_89/convolution/filter", "model_332/tf.math.add_101/Add/y"], "device": "/device:CPU:0", "attr": {"num_host_args": {"i": "0"}, "_input_shapes": {"list": {"shape": [{"dim": [{"size": "-27"}, {"size": "64"}, {"size": "64"}, {"size": "192"}]}, {"dim": [{"size": "1"}, {"size": "1"}, {"size": "192"}, {"size": "128"}]}]}}, "filter_format": {"s": "SFdJTw=="}, "data_format": {"s": "TkhXQw=="}, "strides": {"list": {"i": ["1", "1", "1", "1"]}}, "num_args": {"i": "1"}, "fused_ops": {"list": {"s": ["Qmlhc0FkZA=="]}}, "TArgs": {"list": {"type": ["DT_FLOAT"]}}, "padding": {"s": "U0FNRQ=="}, "use_cudnn_on_gpu": {"b": true}, "leakyrelu_alpha": {"f": 0.2}, "epsilon": {"f": 0.0}, "T": {"type": "DT_FLOAT"}, "explicit_paddings": {"list": {}}, "dilations": {"list": {"i": ["1", "1", "1", "1"]}}}}, {"name": "model_332/tf.math.add_102/Add", "op": "_FusedConv2D", "input": ["model_332/tf.math.multiply_167/Mul", "model_332/tf.nn.convolution_90/convolution/filter", "model_332/tf.math.add_102/Add/y"], "device": "/device:CPU:0", "attr": {"num_host_args": {"i": "0"}, "data_format": {"s": "TkhXQw=="}, "filter_format": {"s": "SFdJTw=="}, "_input_shapes": {"list": {"shape": [{"dim": [{"size": "-27"}, {"size": "128"}, {"size": "128"}, {"size": "64"}]}, {"dim": [{"size": "1"}, {"size": "1"}, {"size": "64"}, {"size": "64"}]}]}}, "strides": {"list": {"i": ["1", "1", "1", "1"]}}, "num_args": {"i": "1"}, "fused_ops": {"list": {"s": ["Qmlhc0FkZA=="]}}, "TArgs": {"list": {"type": ["DT_FLOAT"]}}, "padding": {"s": "U0FNRQ=="}, "use_cudnn_on_gpu": {"b": true}, "leakyrelu_alpha": {"f": 0.2}, "epsilon": {"f": 0.0}, "T": {"type": "DT_FLOAT"}, "explicit_paddings": {"list": {}}, "dilations": {"list": {"i": ["1", "1", "1", "1"]}}}}, {"name": "model_332/tf.math.add_103/Add", "op": "_FusedConv2D", "input": ["model_332/tf.math.multiply_171/Mul", "model_332/tf.nn.convolution_91/convolution/filter", "model_332/tf.math.add_103/Add/y"], "device": "/device:CPU:0", "attr": {"num_host_args": {"i": "0"}, "data_format": {"s": "TkhXQw=="}, "filter_format": {"s": "SFdJTw=="}, "_input_shapes": {"list": {"shape": [{"dim": [{"size": "-27"}, {"size": "128"}, {"size": "128"}, {"size": "64"}]}, {"dim": [{"size": "1"}, {"size": "1"}, {"size": "64"}, {"size": "4"}]}]}}, "strides": {"list": {"i": ["1", "1", "1", "1"]}}, "num_args": {"i": "1"}, "fused_ops": {"list": {"s": ["Qmlhc0FkZA=="]}}, "TArgs": {"list": {"type": ["DT_FLOAT"]}}, "padding": {"s": "U0FNRQ=="}, "use_cudnn_on_gpu": {"b": true}, "leakyrelu_alpha": {"f": 0.2}, "epsilon": {"f": 0.0}, "T": {"type": "DT_FLOAT"}, "explicit_paddings": {"list": {}}, "dilations": {"list": {"i": ["1", "1", "1", "1"]}}}}, {"name": "model_332/tf.math.sigmoid_40/Sigmoid", "op": "Sigmoid", "input": ["model_332/tf.math.add_101/Add"], "attr": {"_input_shapes": {"list": {"shape": [{"dim": [{"size": "-27"}, {"size": "64"}, {"size": "64"}, {"size": "128"}]}]}}, "T": {"type": "DT_FLOAT"}}}, {"name": "model_332/tf.concat_1164/concat", "op": "ConcatV2", "input": ["model_332/tf.math.add_102/Add", "model_332/tf.math.add_103/Add", "model_332/tf.concat_1164/concat/axis"], "attr": {"N": {"i": "2"}, "T": {"type": "DT_FLOAT"}, "Tidx": {"type": "DT_INT32"}}}, {"name": "model_332/tf.math.multiply_175/Mul", "op": "Mul", "input": ["model_332/tf.math.add_101/Add", "model_332/tf.math.sigmoid_40/Sigmoid"], "attr": {"T": {"type": "DT_FLOAT"}}}, {"name": "model_332/tf.compat.v1.transpose_2282/transpose", "op": "Transpose", "input": ["model_332/tf.concat_1164/concat", "model_332/tf.compat.v1.transpose_2282/transpose/perm"], "attr": {"Tperm": {"type": "DT_INT32"}, "_input_shapes": {"list": {"shape": [{"dim": [{"size": "-27"}, {"size": "128"}, {"size": "128"}, {"size": "68"}]}, {"dim": [{"size": "4"}]}]}}, "T": {"type": "DT_FLOAT"}}}, {"name": "model_332/tf.strided_slice_12/StridedSlice", "op": "StridedSlice", "input": ["model_332/tf.math.multiply_175/Mul", "model_332/tf.strided_slice_12/ones_like/tensor", "model_332/tf.strided_slice_12/StridedSlice/end", "model_332/tf.strided_slice_12/ones_like"], "attr": {"shrink_axis_mask": {"i": "0"}, "Index": {"type": "DT_INT64"}, "new_axis_mask": {"i": "0"}, "begin_mask": {"i": "15"}, "T": {"type": "DT_FLOAT"}, "end_mask": {"i": "7"}, "ellipsis_mask": {"i": "0"}}}, {"name": "model_332/tf.strided_slice_13/StridedSlice", "op": "StridedSlice", "input": ["model_332/tf.math.multiply_175/Mul", "model_332/tf.strided_slice_13/ones_like/tensor", "model_332/tf.strided_slice_13/StridedSlice/end", "model_332/tf.strided_slice_13/ones_like"], "attr": {"shrink_axis_mask": {"i": "0"}, "Index": {"type": "DT_INT64"}, "new_axis_mask": {"i": "0"}, "begin_mask": {"i": "7"}, "end_mask": {"i": "7"}, "T": {"type": "DT_FLOAT"}, "ellipsis_mask": {"i": "0"}}}, {"name": "model_332/tf.reshape_25/Reshape", "op": "Reshape", "input": ["model_332/tf.compat.v1.transpose_2282/transpose", "model_332/tf.reshape_25/Reshape/shape"], "attr": {"T": {"type": "DT_FLOAT"}, "Tshape": {"type": "DT_INT32"}}}, {"name": "model_332/tf.math.add_111/Add", "op": "_FusedConv2D", "input": ["model_332/tf.strided_slice_13/StridedSlice", "model_332/tf.nn.convolution_99/convolution/filter", "model_332/tf.math.add_111/Add/y"], "device": "/device:CPU:0", "attr": {"num_host_args": {"i": "0"}, "data_format": {"s": "TkhXQw=="}, "filter_format": {"s": "SFdJTw=="}, "_input_shapes": {"list": {"shape": [{"dim": [{"size": "-23"}, {"size": "64"}, {"size": "64"}, {"size": "64"}]}, {"dim": [{"size": "3"}, {"size": "3"}, {"size": "64"}, {"size": "64"}]}]}}, "strides": {"list": {"i": ["1", "1", "1", "1"]}}, "num_args": {"i": "1"}, "fused_ops": {"list": {"s": ["Qmlhc0FkZA=="]}}, "TArgs": {"list": {"type": ["DT_FLOAT"]}}, "padding": {"s": "U0FNRQ=="}, "use_cudnn_on_gpu": {"b": true}, "leakyrelu_alpha": {"f": 0.2}, "epsilon": {"f": 0.0}, "T": {"type": "DT_FLOAT"}, "explicit_paddings": {"list": {}}, "dilations": {"list": {"i": ["1", "1", "1", "1"]}}}}, {"name": "model_332/tf.math.sigmoid_41/Sigmoid", "op": "Sigmoid", "input": ["model_332/tf.math.add_111/Add"], "attr": {"_input_shapes": {"list": {"shape": [{"dim": [{"size": "-23"}, {"size": "64"}, {"size": "64"}, {"size": "64"}]}]}}, "T": {"type": "DT_FLOAT"}}}, {"name": "model_332/tf.math.multiply_179/Mul", "op": "Mul", "input": ["model_332/tf.math.add_111/Add", "model_332/tf.math.sigmoid_41/Sigmoid"], "attr": {"T": {"type": "DT_FLOAT"}}}, {"name": "model_332/tf.math.add_119/Add", "op": "_FusedConv2D", "input": ["model_332/tf.math.multiply_179/Mul", "model_332/tf.nn.convolution_107/convolution/filter", "model_332/tf.math.add_119/Add/y"], "device": "/device:CPU:0", "attr": {"num_host_args": {"i": "0"}, "_input_shapes": {"list": {"shape": [{"dim": [{"size": "-23"}, {"size": "64"}, {"size": "64"}, {"size": "64"}]}, {"dim": [{"size": "3"}, {"size": "3"}, {"size": "64"}, {"size": "64"}]}]}}, "filter_format": {"s": "SFdJTw=="}, "data_format": {"s": "TkhXQw=="}, "fused_ops": {"list": {"s": ["Qmlhc0FkZA=="]}}, "num_args": {"i": "1"}, "strides": {"list": {"i": ["1", "1", "1", "1"]}}, "TArgs": {"list": {"type": ["DT_FLOAT"]}}, "padding": {"s": "U0FNRQ=="}, "use_cudnn_on_gpu": {"b": true}, "leakyrelu_alpha": {"f": 0.2}, "epsilon": {"f": 0.0}, "T": {"type": "DT_FLOAT"}, "explicit_paddings": {"list": {}}, "dilations": {"list": {"i": ["1", "1", "1", "1"]}}}}, {"name": "model_332/tf.math.sigmoid_42/Sigmoid", "op": "Sigmoid", "input": ["model_332/tf.math.add_119/Add"], "attr": {"_input_shapes": {"list": {"shape": [{"dim": [{"size": "-23"}, {"size": "64"}, {"size": "64"}, {"size": "64"}]}]}}, "T": {"type": "DT_FLOAT"}}}, {"name": "model_332/tf.math.multiply_183/Mul", "op": "Mul", "input": ["model_332/tf.math.add_119/Add", "model_332/tf.math.sigmoid_42/Sigmoid"], "attr": {"T": {"type": "DT_FLOAT"}}}, {"name": "model_332/tf.concat_1165/concat", "op": "ConcatV2", "input": ["model_332/tf.strided_slice_12/StridedSlice", "model_332/tf.strided_slice_13/StridedSlice", "model_332/tf.math.multiply_183/Mul", "model_332/tf.concat_1165/concat/axis"], "attr": {"N": {"i": "3"}, "Tidx": {"type": "DT_INT32"}, "T": {"type": "DT_FLOAT"}}}, {"name": "model_332/tf.math.add_120/Add", "op": "_FusedConv2D", "input": ["model_332/tf.concat_1165/concat", "model_332/tf.nn.convolution_108/convolution/filter", "model_332/tf.math.add_120/Add/y"], "device": "/device:CPU:0", "attr": {"num_host_args": {"i": "0"}, "data_format": {"s": "TkhXQw=="}, "filter_format": {"s": "SFdJTw=="}, "_input_shapes": {"list": {"shape": [{"dim": [{"size": "-23"}, {"size": "64"}, {"size": "64"}, {"size": "192"}]}, {"dim": [{"size": "1"}, {"size": "1"}, {"size": "192"}, {"size": "128"}]}]}}, "fused_ops": {"list": {"s": ["Qmlhc0FkZA=="]}}, "num_args": {"i": "1"}, "strides": {"list": {"i": ["1", "1", "1", "1"]}}, "TArgs": {"list": {"type": ["DT_FLOAT"]}}, "padding": {"s": "U0FNRQ=="}, "use_cudnn_on_gpu": {"b": true}, "leakyrelu_alpha": {"f": 0.2}, "epsilon": {"f": 0.0}, "T": {"type": "DT_FLOAT"}, "explicit_paddings": {"list": {}}, "dilations": {"list": {"i": ["1", "1", "1", "1"]}}}}, {"name": "model_332/tf.math.sigmoid_43/Sigmoid", "op": "Sigmoid", "input": ["model_332/tf.math.add_120/Add"], "attr": {"_input_shapes": {"list": {"shape": [{"dim": [{"size": "-23"}, {"size": "64"}, {"size": "64"}, {"size": "128"}]}]}}, "T": {"type": "DT_FLOAT"}}}, {"name": "model_332/tf.math.multiply_187/Mul", "op": "Mul", "input": ["model_332/tf.math.add_120/Add", "model_332/tf.math.sigmoid_43/Sigmoid"], "attr": {"T": {"type": "DT_FLOAT"}}}, {"name": "model_332/tf.math.add_122/Add", "op": "_FusedConv2D", "input": ["model_332/tf.math.multiply_187/Mul", "model_332/tf.nn.convolution_110/convolution/filter", "model_332/tf.math.add_122/Add/y"], "device": "/device:CPU:0", "attr": {"num_host_args": {"i": "0"}, "_input_shapes": {"list": {"shape": [{"dim": [{"size": "-23"}, {"size": "64"}, {"size": "64"}, {"size": "128"}]}, {"dim": [{"size": "3"}, {"size": "3"}, {"size": "128"}, {"size": "64"}]}]}}, "filter_format": {"s": "SFdJTw=="}, "data_format": {"s": "TkhXQw=="}, "fused_ops": {"list": {"s": ["Qmlhc0FkZA=="]}}, "num_args": {"i": "1"}, "strides": {"list": {"i": ["1", "1", "1", "1"]}}, "TArgs": {"list": {"type": ["DT_FLOAT"]}}, "padding": {"s": "U0FNRQ=="}, "use_cudnn_on_gpu": {"b": true}, "leakyrelu_alpha": {"f": 0.2}, "epsilon": {"f": 0.0}, "T": {"type": "DT_FLOAT"}, "explicit_paddings": {"list": {}}, "dilations": {"list": {"i": ["1", "1", "1", "1"]}}}}, {"name": "model_332/tf.math.add_123/Add", "op": "_FusedConv2D", "input": ["model_332/tf.math.multiply_187/Mul", "model_332/tf.nn.convolution_111/convolution/filter", "model_332/tf.math.add_123/Add/y"], "device": "/device:CPU:0", "attr": {"num_host_args": {"i": "0"}, "_input_shapes": {"list": {"shape": [{"dim": [{"size": "-23"}, {"size": "64"}, {"size": "64"}, {"size": "128"}]}, {"dim": [{"size": "3"}, {"size": "3"}, {"size": "128"}, {"size": "64"}]}]}}, "filter_format": {"s": "SFdJTw=="}, "data_format": {"s": "TkhXQw=="}, "fused_ops": {"list": {"s": ["Qmlhc0FkZA=="]}}, "num_args": {"i": "1"}, "strides": {"list": {"i": ["1", "1", "1", "1"]}}, "TArgs": {"list": {"type": ["DT_FLOAT"]}}, "padding": {"s": "U0FNRQ=="}, "use_cudnn_on_gpu": {"b": true}, "leakyrelu_alpha": {"f": 0.2}, "epsilon": {"f": 0.0}, "T": {"type": "DT_FLOAT"}, "explicit_paddings": {"list": {}}, "dilations": {"list": {"i": ["1", "1", "1", "1"]}}}}, {"name": "model_332/tf.compat.v1.pad_6/Pad", "op": "Pad", "input": ["model_332/tf.math.multiply_187/Mul", "model_332/tf.compat.v1.pad_6/Pad/paddings"], "attr": {"Tpaddings": {"type": "DT_INT32"}, "T": {"type": "DT_FLOAT"}}}, {"name": "model_332/tf.math.sigmoid_45/Sigmoid", "op": "Sigmoid", "input": ["model_332/tf.math.add_122/Add"], "attr": {"_input_shapes": {"list": {"shape": [{"dim": [{"size": "-23"}, {"size": "64"}, {"size": "64"}, {"size": "64"}]}]}}, "T": {"type": "DT_FLOAT"}}}, {"name": "model_332/tf.math.sigmoid_46/Sigmoid", "op": "Sigmoid", "input": ["model_332/tf.math.add_123/Add"], "attr": {"_input_shapes": {"list": {"shape": [{"dim": [{"size": "-23"}, {"size": "64"}, {"size": "64"}, {"size": "64"}]}]}}, "T": {"type": "DT_FLOAT"}}}, {"name": "model_332/tf.math.add_121/Add", "op": "_FusedConv2D", "input": ["model_332/tf.compat.v1.pad_6/Pad", "model_332/tf.nn.convolution_109/convolution/filter", "model_332/tf.math.add_121/Add/y"], "device": "/device:CPU:0", "attr": {"num_host_args": {"i": "0"}, "_input_shapes": {"list": {"shape": [{"dim": [{"size": "-23"}, {"size": "66"}, {"size": "66"}, {"size": "128"}]}, {"dim": [{"size": "3"}, {"size": "3"}, {"size": "128"}, {"size": "128"}]}]}}, "filter_format": {"s": "SFdJTw=="}, "data_format": {"s": "TkhXQw=="}, "fused_ops": {"list": {"s": ["Qmlhc0FkZA=="]}}, "num_args": {"i": "1"}, "strides": {"list": {"i": ["1", "2", "2", "1"]}}, "TArgs": {"list": {"type": ["DT_FLOAT"]}}, "padding": {"s": "VkFMSUQ="}, "use_cudnn_on_gpu": {"b": true}, "leakyrelu_alpha": {"f": 0.2}, "epsilon": {"f": 0.0}, "T": {"type": "DT_FLOAT"}, "explicit_paddings": {"list": {}}, "dilations": {"list": {"i": ["1", "1", "1", "1"]}}}}, {"name": "model_332/tf.math.multiply_195/Mul", "op": "Mul", "input": ["model_332/tf.math.add_122/Add", "model_332/tf.math.sigmoid_45/Sigmoid"], "attr": {"T": {"type": "DT_FLOAT"}}}, {"name": "model_332/tf.math.multiply_199/Mul", "op": "Mul", "input": ["model_332/tf.math.add_123/Add", "model_332/tf.math.sigmoid_46/Sigmoid"], "attr": {"T": {"type": "DT_FLOAT"}}}, {"name": "model_332/tf.math.sigmoid_44/Sigmoid", "op": "Sigmoid", "input": ["model_332/tf.math.add_121/Add"], "attr": {"_input_shapes": {"list": {"shape": [{"dim": [{"size": "-23"}, {"size": "32"}, {"size": "32"}, {"size": "128"}]}]}}, "T": {"type": "DT_FLOAT"}}}, {"name": "model_332/tf.math.add_131/Add", "op": "_FusedConv2D", "input": ["model_332/tf.math.multiply_195/Mul", "model_332/tf.nn.convolution_119/convolution/filter", "model_332/tf.math.add_131/Add/y"], "device": "/device:CPU:0", "attr": {"num_host_args": {"i": "0"}, "_input_shapes": {"list": {"shape": [{"dim": [{"size": "-23"}, {"size": "64"}, {"size": "64"}, {"size": "64"}]}, {"dim": [{"size": "3"}, {"size": "3"}, {"size": "64"}, {"size": "64"}]}]}}, "filter_format": {"s": "SFdJTw=="}, "data_format": {"s": "TkhXQw=="}, "fused_ops": {"list": {"s": ["Qmlhc0FkZA=="]}}, "num_args": {"i": "1"}, "strides": {"list": {"i": ["1", "1", "1", "1"]}}, "TArgs": {"list": {"type": ["DT_FLOAT"]}}, "padding": {"s": "U0FNRQ=="}, "use_cudnn_on_gpu": {"b": true}, "leakyrelu_alpha": {"f": 0.2}, "epsilon": {"f": 0.0}, "T": {"type": "DT_FLOAT"}, "explicit_paddings": {"list": {}}, "dilations": {"list": {"i": ["1", "1", "1", "1"]}}}}, {"name": "model_332/tf.math.add_139/Add", "op": "_FusedConv2D", "input": ["model_332/tf.math.multiply_199/Mul", "model_332/tf.nn.convolution_127/convolution/filter", "model_332/tf.math.add_139/Add/y"], "device": "/device:CPU:0", "attr": {"num_host_args": {"i": "0"}, "data_format": {"s": "TkhXQw=="}, "filter_format": {"s": "SFdJTw=="}, "_input_shapes": {"list": {"shape": [{"dim": [{"size": "-23"}, {"size": "64"}, {"size": "64"}, {"size": "64"}]}, {"dim": [{"size": "3"}, {"size": "3"}, {"size": "64"}, {"size": "64"}]}]}}, "strides": {"list": {"i": ["1", "1", "1", "1"]}}, "num_args": {"i": "1"}, "fused_ops": {"list": {"s": ["Qmlhc0FkZA=="]}}, "TArgs": {"list": {"type": ["DT_FLOAT"]}}, "padding": {"s": "U0FNRQ=="}, "use_cudnn_on_gpu": {"b": true}, "leakyrelu_alpha": {"f": 0.2}, "epsilon": {"f": 0.0}, "T": {"type": "DT_FLOAT"}, "explicit_paddings": {"list": {}}, "dilations": {"list": {"i": ["1", "1", "1", "1"]}}}}, {"name": "model_332/tf.math.multiply_191/Mul", "op": "Mul", "input": ["model_332/tf.math.add_121/Add", "model_332/tf.math.sigmoid_44/Sigmoid"], "attr": {"T": {"type": "DT_FLOAT"}}}, {"name": "model_332/tf.math.sigmoid_47/Sigmoid", "op": "Sigmoid", "input": ["model_332/tf.math.add_131/Add"], "attr": {"_input_shapes": {"list": {"shape": [{"dim": [{"size": "-23"}, {"size": "64"}, {"size": "64"}, {"size": "64"}]}]}}, "T": {"type": "DT_FLOAT"}}}, {"name": "model_332/tf.math.sigmoid_48/Sigmoid", "op": "Sigmoid", "input": ["model_332/tf.math.add_139/Add"], "attr": {"_input_shapes": {"list": {"shape": [{"dim": [{"size": "-23"}, {"size": "64"}, {"size": "64"}, {"size": "64"}]}]}}, "T": {"type": "DT_FLOAT"}}}, {"name": "model_332/tf.concat_1166/concat", "op": "ConcatV2", "input": ["model_332/tf.math.multiply_191/Mul", "model_332/tf.math.multiply_119/Mul", "model_332/tf.concat_1166/concat/axis"], "attr": {"N": {"i": "2"}, "Tidx": {"type": "DT_INT32"}, "T": {"type": "DT_FLOAT"}}}, {"name": "model_332/tf.math.multiply_203/Mul", "op": "Mul", "input": ["model_332/tf.math.add_131/Add", "model_332/tf.math.sigmoid_47/Sigmoid"], "attr": {"T": {"type": "DT_FLOAT"}}}, {"name": "model_332/tf.math.multiply_207/Mul", "op": "Mul", "input": ["model_332/tf.math.add_139/Add", "model_332/tf.math.sigmoid_48/Sigmoid"], "attr": {"T": {"type": "DT_FLOAT"}}}, {"name": "model_332/tf.math.add_140/Add", "op": "_FusedConv2D", "input": ["model_332/tf.concat_1166/concat", "model_332/tf.nn.convolution_128/convolution/filter", "model_332/tf.math.add_140/Add/y"], "device": "/device:CPU:0", "attr": {"num_host_args": {"i": "0"}, "_input_shapes": {"list": {"shape": [{"dim": [{"size": "-23"}, {"size": "32"}, {"size": "32"}, {"size": "384"}]}, {"dim": [{"size": "1"}, {"size": "1"}, {"size": "384"}, {"size": "256"}]}]}}, "filter_format": {"s": "SFdJTw=="}, "data_format": {"s": "TkhXQw=="}, "fused_ops": {"list": {"s": ["Qmlhc0FkZA=="]}}, "num_args": {"i": "1"}, "strides": {"list": {"i": ["1", "1", "1", "1"]}}, "TArgs": {"list": {"type": ["DT_FLOAT"]}}, "padding": {"s": "U0FNRQ=="}, "use_cudnn_on_gpu": {"b": true}, "leakyrelu_alpha": {"f": 0.2}, "epsilon": {"f": 0.0}, "T": {"type": "DT_FLOAT"}, "explicit_paddings": {"list": {}}, "dilations": {"list": {"i": ["1", "1", "1", "1"]}}}}, {"name": "model_332/tf.math.add_148/Add", "op": "_FusedConv2D", "input": ["model_332/tf.math.multiply_203/Mul", "model_332/tf.nn.convolution_136/convolution/filter", "model_332/tf.math.add_148/Add/y"], "device": "/device:CPU:0", "attr": {"num_host_args": {"i": "0"}, "_input_shapes": {"list": {"shape": [{"dim": [{"size": "-23"}, {"size": "64"}, {"size": "64"}, {"size": "64"}]}, {"dim": [{"size": "1"}, {"size": "1"}, {"size": "64"}, {"size": "64"}]}]}}, "filter_format": {"s": "SFdJTw=="}, "data_format": {"s": "TkhXQw=="}, "fused_ops": {"list": {"s": ["Qmlhc0FkZA=="]}}, "num_args": {"i": "1"}, "strides": {"list": {"i": ["1", "1", "1", "1"]}}, "TArgs": {"list": {"type": ["DT_FLOAT"]}}, "padding": {"s": "U0FNRQ=="}, "use_cudnn_on_gpu": {"b": true}, "leakyrelu_alpha": {"f": 0.2}, "epsilon": {"f": 0.0}, "T": {"type": "DT_FLOAT"}, "explicit_paddings": {"list": {}}, "dilations": {"list": {"i": ["1", "1", "1", "1"]}}}}, {"name": "model_332/tf.math.add_156/Add", "op": "_FusedConv2D", "input": ["model_332/tf.math.multiply_207/Mul", "model_332/tf.nn.convolution_144/convolution/filter", "model_332/tf.math.add_156/Add/y"], "device": "/device:CPU:0", "attr": {"num_host_args": {"i": "0"}, "data_format": {"s": "TkhXQw=="}, "filter_format": {"s": "SFdJTw=="}, "_input_shapes": {"list": {"shape": [{"dim": [{"size": "-23"}, {"size": "64"}, {"size": "64"}, {"size": "64"}]}, {"dim": [{"size": "1"}, {"size": "1"}, {"size": "64"}, {"size": "4"}]}]}}, "fused_ops": {"list": {"s": ["Qmlhc0FkZA=="]}}, "num_args": {"i": "1"}, "strides": {"list": {"i": ["1", "1", "1", "1"]}}, "TArgs": {"list": {"type": ["DT_FLOAT"]}}, "padding": {"s": "U0FNRQ=="}, "use_cudnn_on_gpu": {"b": true}, "leakyrelu_alpha": {"f": 0.2}, "epsilon": {"f": 0.0}, "T": {"type": "DT_FLOAT"}, "explicit_paddings": {"list": {}}, "dilations": {"list": {"i": ["1", "1", "1", "1"]}}}}, {"name": "model_332/tf.math.sigmoid_49/Sigmoid", "op": "Sigmoid", "input": ["model_332/tf.math.add_140/Add"], "attr": {"_input_shapes": {"list": {"shape": [{"dim": [{"size": "-23"}, {"size": "32"}, {"size": "32"}, {"size": "256"}]}]}}, "T": {"type": "DT_FLOAT"}}}, {"name": "model_332/tf.concat_1744/concat", "op": "ConcatV2", "input": ["model_332/tf.math.add_148/Add", "model_332/tf.math.add_156/Add", "model_332/tf.concat_1744/concat/axis"], "attr": {"N": {"i": "2"}, "Tidx": {"type": "DT_INT32"}, "T": {"type": "DT_FLOAT"}}}, {"name": "model_332/tf.math.multiply_211/Mul", "op": "Mul", "input": ["model_332/tf.math.add_140/Add", "model_332/tf.math.sigmoid_49/Sigmoid"], "attr": {"T": {"type": "DT_FLOAT"}}}, {"name": "model_332/tf.compat.v1.transpose_3441/transpose", "op": "Transpose", "input": ["model_332/tf.concat_1744/concat", "model_332/tf.compat.v1.transpose_3441/transpose/perm"], "attr": {"Tperm": {"type": "DT_INT32"}, "_input_shapes": {"list": {"shape": [{"dim": [{"size": "-23"}, {"size": "64"}, {"size": "64"}, {"size": "68"}]}, {"dim": [{"size": "4"}]}]}}, "T": {"type": "DT_FLOAT"}}}, {"name": "model_332/tf.strided_slice_14/StridedSlice", "op": "StridedSlice", "input": ["model_332/tf.math.multiply_211/Mul", "model_332/tf.strided_slice_14/ones_like/tensor", "model_332/tf.strided_slice_14/StridedSlice/end", "model_332/tf.strided_slice_14/ones_like"], "attr": {"shrink_axis_mask": {"i": "0"}, "Index": {"type": "DT_INT64"}, "new_axis_mask": {"i": "0"}, "begin_mask": {"i": "15"}, "end_mask": {"i": "7"}, "T": {"type": "DT_FLOAT"}, "ellipsis_mask": {"i": "0"}}}, {"name": "model_332/tf.strided_slice_15/StridedSlice", "op": "StridedSlice", "input": ["model_332/tf.math.multiply_211/Mul", "model_332/tf.strided_slice_15/ones_like/tensor", "model_332/tf.strided_slice_15/StridedSlice/end", "model_332/tf.strided_slice_15/ones_like"], "attr": {"shrink_axis_mask": {"i": "0"}, "Index": {"type": "DT_INT64"}, "new_axis_mask": {"i": "0"}, "begin_mask": {"i": "7"}, "T": {"type": "DT_FLOAT"}, "end_mask": {"i": "7"}, "ellipsis_mask": {"i": "0"}}}, {"name": "model_332/tf.reshape_51/Reshape", "op": "Reshape", "input": ["model_332/tf.compat.v1.transpose_3441/transpose", "model_332/tf.reshape_51/Reshape/shape"], "attr": {"T": {"type": "DT_FLOAT"}, "Tshape": {"type": "DT_INT32"}}}, {"name": "model_332/tf.math.add_157/Add", "op": "_FusedConv2D", "input": ["model_332/tf.strided_slice_15/StridedSlice", "model_332/tf.nn.convolution_145/convolution/filter", "model_332/tf.math.add_157/Add/y"], "device": "/device:CPU:0", "attr": {"num_host_args": {"i": "0"}, "_input_shapes": {"list": {"shape": [{"dim": [{"size": "1"}, {"size": "32"}, {"size": "32"}, {"size": "128"}]}, {"dim": [{"size": "3"}, {"size": "3"}, {"size": "128"}, {"size": "128"}]}]}}, "filter_format": {"s": "SFdJTw=="}, "data_format": {"s": "TkhXQw=="}, "strides": {"list": {"i": ["1", "1", "1", "1"]}}, "num_args": {"i": "1"}, "fused_ops": {"list": {"s": ["Qmlhc0FkZA=="]}}, "TArgs": {"list": {"type": ["DT_FLOAT"]}}, "padding": {"s": "U0FNRQ=="}, "use_cudnn_on_gpu": {"b": true}, "leakyrelu_alpha": {"f": 0.2}, "epsilon": {"f": 0.0}, "T": {"type": "DT_FLOAT"}, "explicit_paddings": {"list": {}}, "dilations": {"list": {"i": ["1", "1", "1", "1"]}}}}, {"name": "model_332/tf.math.sigmoid_50/Sigmoid", "op": "Sigmoid", "input": ["model_332/tf.math.add_157/Add"], "attr": {"_input_shapes": {"list": {"shape": [{"dim": [{"size": "1"}, {"size": "32"}, {"size": "32"}, {"size": "128"}]}]}}, "T": {"type": "DT_FLOAT"}}}, {"name": "model_332/tf.math.multiply_215/Mul", "op": "Mul", "input": ["model_332/tf.math.add_157/Add", "model_332/tf.math.sigmoid_50/Sigmoid"], "attr": {"T": {"type": "DT_FLOAT"}}}, {"name": "model_332/tf.math.add_158/Add", "op": "_FusedConv2D", "input": ["model_332/tf.math.multiply_215/Mul", "model_332/tf.nn.convolution_146/convolution/filter", "model_332/tf.math.add_158/Add/y"], "device": "/device:CPU:0", "attr": {"num_host_args": {"i": "0"}, "data_format": {"s": "TkhXQw=="}, "filter_format": {"s": "SFdJTw=="}, "_input_shapes": {"list": {"shape": [{"dim": [{"size": "1"}, {"size": "32"}, {"size": "32"}, {"size": "128"}]}, {"dim": [{"size": "3"}, {"size": "3"}, {"size": "128"}, {"size": "128"}]}]}}, "strides": {"list": {"i": ["1", "1", "1", "1"]}}, "num_args": {"i": "1"}, "fused_ops": {"list": {"s": ["Qmlhc0FkZA=="]}}, "TArgs": {"list": {"type": ["DT_FLOAT"]}}, "padding": {"s": "U0FNRQ=="}, "use_cudnn_on_gpu": {"b": true}, "leakyrelu_alpha": {"f": 0.2}, "epsilon": {"f": 0.0}, "T": {"type": "DT_FLOAT"}, "explicit_paddings": {"list": {}}, "dilations": {"list": {"i": ["1", "1", "1", "1"]}}}}, {"name": "model_332/tf.math.sigmoid_51/Sigmoid", "op": "Sigmoid", "input": ["model_332/tf.math.add_158/Add"], "attr": {"_input_shapes": {"list": {"shape": [{"dim": [{"size": "1"}, {"size": "32"}, {"size": "32"}, {"size": "128"}]}]}}, "T": {"type": "DT_FLOAT"}}}, {"name": "model_332/tf.math.multiply_219/Mul", "op": "Mul", "input": ["model_332/tf.math.add_158/Add", "model_332/tf.math.sigmoid_51/Sigmoid"], "attr": {"T": {"type": "DT_FLOAT"}}}, {"name": "model_332/tf.concat_1745/concat", "op": "ConcatV2", "input": ["model_332/tf.strided_slice_14/StridedSlice", "model_332/tf.strided_slice_15/StridedSlice", "model_332/tf.math.multiply_219/Mul", "model_332/tf.concat_1745/concat/axis"], "attr": {"N": {"i": "3"}, "Tidx": {"type": "DT_INT32"}, "T": {"type": "DT_FLOAT"}}}, {"name": "model_332/tf.math.add_159/Add", "op": "_FusedConv2D", "input": ["model_332/tf.concat_1745/concat", "model_332/tf.nn.convolution_147/convolution/filter", "model_332/tf.math.add_159/Add/y"], "device": "/device:CPU:0", "attr": {"num_host_args": {"i": "0"}, "data_format": {"s": "TkhXQw=="}, "filter_format": {"s": "SFdJTw=="}, "_input_shapes": {"list": {"shape": [{"dim": [{"size": "1"}, {"size": "32"}, {"size": "32"}, {"size": "384"}]}, {"dim": [{"size": "1"}, {"size": "1"}, {"size": "384"}, {"size": "256"}]}]}}, "fused_ops": {"list": {"s": ["Qmlhc0FkZA=="]}}, "num_args": {"i": "1"}, "strides": {"list": {"i": ["1", "1", "1", "1"]}}, "TArgs": {"list": {"type": ["DT_FLOAT"]}}, "padding": {"s": "U0FNRQ=="}, "use_cudnn_on_gpu": {"b": true}, "leakyrelu_alpha": {"f": 0.2}, "epsilon": {"f": 0.0}, "T": {"type": "DT_FLOAT"}, "explicit_paddings": {"list": {}}, "dilations": {"list": {"i": ["1", "1", "1", "1"]}}}}, {"name": "model_332/tf.math.sigmoid_52/Sigmoid", "op": "Sigmoid", "input": ["model_332/tf.math.add_159/Add"], "attr": {"_input_shapes": {"list": {"shape": [{"dim": [{"size": "1"}, {"size": "32"}, {"size": "32"}, {"size": "256"}]}]}}, "T": {"type": "DT_FLOAT"}}}, {"name": "model_332/tf.math.multiply_223/Mul", "op": "Mul", "input": ["model_332/tf.math.add_159/Add", "model_332/tf.math.sigmoid_52/Sigmoid"], "attr": {"T": {"type": "DT_FLOAT"}}}, {"name": "model_332/tf.math.add_160/Add", "op": "_FusedConv2D", "input": ["model_332/tf.math.multiply_223/Mul", "model_332/tf.nn.convolution_148/convolution/filter", "model_332/tf.math.add_160/Add/y"], "device": "/device:CPU:0", "attr": {"num_host_args": {"i": "0"}, "_input_shapes": {"list": {"shape": [{"dim": [{"size": "1"}, {"size": "32"}, {"size": "32"}, {"size": "256"}]}, {"dim": [{"size": "3"}, {"size": "3"}, {"size": "256"}, {"size": "64"}]}]}}, "filter_format": {"s": "SFdJTw=="}, "data_format": {"s": "TkhXQw=="}, "strides": {"list": {"i": ["1", "1", "1", "1"]}}, "num_args": {"i": "1"}, "fused_ops": {"list": {"s": ["Qmlhc0FkZA=="]}}, "TArgs": {"list": {"type": ["DT_FLOAT"]}}, "padding": {"s": "U0FNRQ=="}, "use_cudnn_on_gpu": {"b": true}, "leakyrelu_alpha": {"f": 0.2}, "epsilon": {"f": 0.0}, "T": {"type": "DT_FLOAT"}, "explicit_paddings": {"list": {}}, "dilations": {"list": {"i": ["1", "1", "1", "1"]}}}}, {"name": "model_332/tf.math.add_161/Add", "op": "_FusedConv2D", "input": ["model_332/tf.math.multiply_223/Mul", "model_332/tf.nn.convolution_149/convolution/filter", "model_332/tf.math.add_161/Add/y"], "device": "/device:CPU:0", "attr": {"num_host_args": {"i": "0"}, "data_format": {"s": "TkhXQw=="}, "filter_format": {"s": "SFdJTw=="}, "_input_shapes": {"list": {"shape": [{"dim": [{"size": "1"}, {"size": "32"}, {"size": "32"}, {"size": "256"}]}, {"dim": [{"size": "3"}, {"size": "3"}, {"size": "256"}, {"size": "64"}]}]}}, "strides": {"list": {"i": ["1", "1", "1", "1"]}}, "num_args": {"i": "1"}, "fused_ops": {"list": {"s": ["Qmlhc0FkZA=="]}}, "TArgs": {"list": {"type": ["DT_FLOAT"]}}, "padding": {"s": "U0FNRQ=="}, "use_cudnn_on_gpu": {"b": true}, "leakyrelu_alpha": {"f": 0.2}, "epsilon": {"f": 0.0}, "T": {"type": "DT_FLOAT"}, "explicit_paddings": {"list": {}}, "dilations": {"list": {"i": ["1", "1", "1", "1"]}}}}, {"name": "model_332/tf.math.sigmoid_53/Sigmoid", "op": "Sigmoid", "input": ["model_332/tf.math.add_160/Add"], "attr": {"_input_shapes": {"list": {"shape": [{"dim": [{"size": "1"}, {"size": "32"}, {"size": "32"}, {"size": "64"}]}]}}, "T": {"type": "DT_FLOAT"}}}, {"name": "model_332/tf.math.sigmoid_54/Sigmoid", "op": "Sigmoid", "input": ["model_332/tf.math.add_161/Add"], "attr": {"_input_shapes": {"list": {"shape": [{"dim": [{"size": "1"}, {"size": "32"}, {"size": "32"}, {"size": "64"}]}]}}, "T": {"type": "DT_FLOAT"}}}, {"name": "model_332/tf.math.multiply_227/Mul", "op": "Mul", "input": ["model_332/tf.math.add_160/Add", "model_332/tf.math.sigmoid_53/Sigmoid"], "attr": {"T": {"type": "DT_FLOAT"}}}, {"name": "model_332/tf.math.multiply_231/Mul", "op": "Mul", "input": ["model_332/tf.math.add_161/Add", "model_332/tf.math.sigmoid_54/Sigmoid"], "attr": {"T": {"type": "DT_FLOAT"}}}, {"name": "model_332/tf.math.add_162/Add", "op": "_FusedConv2D", "input": ["model_332/tf.math.multiply_227/Mul", "model_332/tf.nn.convolution_150/convolution/filter", "model_332/tf.math.add_162/Add/y"], "device": "/device:CPU:0", "attr": {"num_host_args": {"i": "0"}, "data_format": {"s": "TkhXQw=="}, "filter_format": {"s": "SFdJTw=="}, "_input_shapes": {"list": {"shape": [{"dim": [{"size": "1"}, {"size": "32"}, {"size": "32"}, {"size": "64"}]}, {"dim": [{"size": "3"}, {"size": "3"}, {"size": "64"}, {"size": "64"}]}]}}, "strides": {"list": {"i": ["1", "1", "1", "1"]}}, "num_args": {"i": "1"}, "fused_ops": {"list": {"s": ["Qmlhc0FkZA=="]}}, "TArgs": {"list": {"type": ["DT_FLOAT"]}}, "padding": {"s": "U0FNRQ=="}, "use_cudnn_on_gpu": {"b": true}, "leakyrelu_alpha": {"f": 0.2}, "epsilon": {"f": 0.0}, "T": {"type": "DT_FLOAT"}, "explicit_paddings": {"list": {}}, "dilations": {"list": {"i": ["1", "1", "1", "1"]}}}}, {"name": "model_332/tf.math.add_163/Add", "op": "_FusedConv2D", "input": ["model_332/tf.math.multiply_231/Mul", "model_332/tf.nn.convolution_151/convolution/filter", "model_332/tf.math.add_163/Add/y"], "device": "/device:CPU:0", "attr": {"num_host_args": {"i": "0"}, "data_format": {"s": "TkhXQw=="}, "filter_format": {"s": "SFdJTw=="}, "_input_shapes": {"list": {"shape": [{"dim": [{"size": "1"}, {"size": "32"}, {"size": "32"}, {"size": "64"}]}, {"dim": [{"size": "3"}, {"size": "3"}, {"size": "64"}, {"size": "64"}]}]}}, "strides": {"list": {"i": ["1", "1", "1", "1"]}}, "num_args": {"i": "1"}, "fused_ops": {"list": {"s": ["Qmlhc0FkZA=="]}}, "TArgs": {"list": {"type": ["DT_FLOAT"]}}, "padding": {"s": "U0FNRQ=="}, "use_cudnn_on_gpu": {"b": true}, "leakyrelu_alpha": {"f": 0.2}, "epsilon": {"f": 0.0}, "T": {"type": "DT_FLOAT"}, "explicit_paddings": {"list": {}}, "dilations": {"list": {"i": ["1", "1", "1", "1"]}}}}, {"name": "model_332/tf.math.sigmoid_55/Sigmoid", "op": "Sigmoid", "input": ["model_332/tf.math.add_162/Add"], "attr": {"_input_shapes": {"list": {"shape": [{"dim": [{"size": "1"}, {"size": "32"}, {"size": "32"}, {"size": "64"}]}]}}, "T": {"type": "DT_FLOAT"}}}, {"name": "model_332/tf.math.sigmoid_56/Sigmoid", "op": "Sigmoid", "input": ["model_332/tf.math.add_163/Add"], "attr": {"_input_shapes": {"list": {"shape": [{"dim": [{"size": "1"}, {"size": "32"}, {"size": "32"}, {"size": "64"}]}]}}, "T": {"type": "DT_FLOAT"}}}, {"name": "model_332/tf.math.multiply_235/Mul", "op": "Mul", "input": ["model_332/tf.math.add_162/Add", "model_332/tf.math.sigmoid_55/Sigmoid"], "attr": {"T": {"type": "DT_FLOAT"}}}, {"name": "model_332/tf.math.multiply_239/Mul", "op": "Mul", "input": ["model_332/tf.math.add_163/Add", "model_332/tf.math.sigmoid_56/Sigmoid"], "attr": {"T": {"type": "DT_FLOAT"}}}, {"name": "model_332/tf.math.add_164/Add", "op": "_FusedConv2D", "input": ["model_332/tf.math.multiply_235/Mul", "model_332/tf.nn.convolution_152/convolution/filter", "model_332/tf.math.add_164/Add/y"], "device": "/device:CPU:0", "attr": {"num_host_args": {"i": "0"}, "data_format": {"s": "TkhXQw=="}, "filter_format": {"s": "SFdJTw=="}, "_input_shapes": {"list": {"shape": [{"dim": [{"size": "1"}, {"size": "32"}, {"size": "32"}, {"size": "64"}]}, {"dim": [{"size": "1"}, {"size": "1"}, {"size": "64"}, {"size": "64"}]}]}}, "fused_ops": {"list": {"s": ["Qmlhc0FkZA=="]}}, "num_args": {"i": "1"}, "strides": {"list": {"i": ["1", "1", "1", "1"]}}, "TArgs": {"list": {"type": ["DT_FLOAT"]}}, "padding": {"s": "U0FNRQ=="}, "use_cudnn_on_gpu": {"b": true}, "leakyrelu_alpha": {"f": 0.2}, "epsilon": {"f": 0.0}, "T": {"type": "DT_FLOAT"}, "explicit_paddings": {"list": {}}, "dilations": {"list": {"i": ["1", "1", "1", "1"]}}}}, {"name": "model_332/tf.math.add_165/Add", "op": "_FusedConv2D", "input": ["model_332/tf.math.multiply_239/Mul", "model_332/tf.nn.convolution_153/convolution/filter", "model_332/tf.math.add_165/Add/y"], "device": "/device:CPU:0", "attr": {"num_host_args": {"i": "0"}, "data_format": {"s": "TkhXQw=="}, "filter_format": {"s": "SFdJTw=="}, "_input_shapes": {"list": {"shape": [{"dim": [{"size": "1"}, {"size": "32"}, {"size": "32"}, {"size": "64"}]}, {"dim": [{"size": "1"}, {"size": "1"}, {"size": "64"}, {"size": "4"}]}]}}, "fused_ops": {"list": {"s": ["Qmlhc0FkZA=="]}}, "num_args": {"i": "1"}, "strides": {"list": {"i": ["1", "1", "1", "1"]}}, "TArgs": {"list": {"type": ["DT_FLOAT"]}}, "padding": {"s": "U0FNRQ=="}, "use_cudnn_on_gpu": {"b": true}, "leakyrelu_alpha": {"f": 0.2}, "epsilon": {"f": 0.0}, "T": {"type": "DT_FLOAT"}, "explicit_paddings": {"list": {}}, "dilations": {"list": {"i": ["1", "1", "1", "1"]}}}}, {"name": "model_332/tf.concat_1746/concat", "op": "ConcatV2", "input": ["model_332/tf.math.add_164/Add", "model_332/tf.math.add_165/Add", "model_332/tf.concat_1746/concat/axis"], "attr": {"N": {"i": "2"}, "Tidx": {"type": "DT_INT32"}, "T": {"type": "DT_FLOAT"}}}, {"name": "model_332/tf.compat.v1.transpose_3476/transpose", "op": "Transpose", "input": ["model_332/tf.concat_1746/concat", "model_332/tf.compat.v1.transpose_3476/transpose/perm"], "attr": {"Tperm": {"type": "DT_INT32"}, "_input_shapes": {"list": {"shape": [{"dim": [{"size": "1"}, {"size": "32"}, {"size": "32"}, {"size": "68"}]}, {"dim": [{"size": "4"}]}]}}, "T": {"type": "DT_FLOAT"}}}, {"name": "model_332/tf.reshape_77/Reshape", "op": "Reshape", "input": ["model_332/tf.compat.v1.transpose_3476/transpose", "model_332/tf.reshape_77/Reshape/shape"], "attr": {"T": {"type": "DT_FLOAT"}, "Tshape": {"type": "DT_INT32"}}}, {"name": "model_332/tf.concat_1747/concat", "op": "ConcatV2", "input": ["model_332/tf.reshape_25/Reshape", "model_332/tf.reshape_51/Reshape", "model_332/tf.reshape_77/Reshape", "model_332/tf.concat_1747/concat/axis"], "attr": {"N": {"i": "3"}, "T": {"type": "DT_FLOAT"}, "Tidx": {"type": "DT_INT32"}}}, {"name": "model_332/tf.strided_slice_17/StridedSlice", "op": "StridedSlice", "input": ["model_332/tf.concat_1747/concat", "model_332/tf.strided_slice_17/StridedSlice/begin", "model_332/tf.strided_slice_17/StridedSlice/end", "model_332/tf.strided_slice_17/StridedSlice/strides"], "attr": {"shrink_axis_mask": {"i": "0"}, "new_axis_mask": {"i": "0"}, "Index": {"type": "DT_INT64"}, "begin_mask": {"i": "5"}, "end_mask": {"i": "5"}, "T": {"type": "DT_FLOAT"}, "ellipsis_mask": {"i": "0"}}}, {"name": "model_332/tf.strided_slice_16/StridedSlice", "op": "StridedSlice", "input": ["model_332/tf.concat_1747/concat", "model_332/tf.strided_slice_16/StridedSlice/begin", "model_332/tf.strided_slice_16/StridedSlice/end", "model_332/tf.strided_slice_16/StridedSlice/strides"], "attr": {"shrink_axis_mask": {"i": "0"}, "Index": {"type": "DT_INT64"}, "new_axis_mask": {"i": "0"}, "begin_mask": {"i": "7"}, "end_mask": {"i": "5"}, "T": {"type": "DT_FLOAT"}, "ellipsis_mask": {"i": "0"}}}, {"name": "model_332/tf.math.sigmoid_57/Sigmoid", "op": "Sigmoid", "input": ["model_332/tf.strided_slice_17/StridedSlice"], "attr": {"_input_shapes": {"list": {"shape": [{"dim": [{"size": "1"}, {"size": "4"}, {"size": "21504"}]}]}}, "T": {"type": "DT_FLOAT"}}}, {"name": "model_332/tf.reshape_85/Reshape", "op": "Reshape", "input": ["model_332/tf.strided_slice_16/StridedSlice", "model_332/tf.reshape_85/Reshape/shape"], "attr": {"T": {"type": "DT_FLOAT"}, "Tshape": {"type": "DT_INT32"}}}, {"name": "model_332/tf.compat.v1.transpose_3511/transpose", "op": "Transpose", "input": ["model_332/tf.reshape_85/Reshape", "model_332/tf.compat.v1.transpose_3511/transpose/perm"], "attr": {"Tperm": {"type": "DT_INT32"}, "_input_shapes": {"list": {"shape": [{"dim": [{"size": "1"}, {"size": "4"}, {"size": "16"}, {"size": "21504"}]}, {"dim": [{"size": "4"}]}]}}, "T": {"type": "DT_FLOAT"}}}, {"name": "model_332/tf.compat.v1.transpose_3512/transpose", "op": "Transpose", "input": ["model_332/tf.compat.v1.transpose_3511/transpose", "model_332/tf.compat.v1.transpose_3512/transpose/perm"], "attr": {"Tperm": {"type": "DT_INT32"}, "_input_shapes": {"list": {"shape": [{"dim": [{"size": "1"}, {"size": "16"}, {"size": "4"}, {"size": "21504"}]}, {"dim": [{"size": "4"}]}]}}, "T": {"type": "DT_FLOAT"}}}, {"name": "model_332/tf.nn.softmax/wa/model.22/dfl/Softmax", "op": "Softmax", "input": ["model_332/tf.compat.v1.transpose_3512/transpose"], "attr": {"T": {"type": "DT_FLOAT"}}}, {"name": "model_332/tf.nn.convolution_154/convolution", "op": "Conv2D", "input": ["model_332/tf.nn.softmax/wa/model.22/dfl/Softmax", "model_332/tf.nn.convolution_154/convolution/filter"], "device": "/device:CPU:0", "attr": {"padding": {"s": "U0FNRQ=="}, "data_format": {"s": "TkhXQw=="}, "_input_shapes": {"list": {"shape": [{"dim": [{"size": "1"}, {"size": "4"}, {"size": "21504"}, {"size": "16"}]}, {"dim": [{"size": "1"}, {"size": "1"}, {"size": "16"}, {"size": "1"}]}]}}, "use_cudnn_on_gpu": {"b": true}, "strides": {"list": {"i": ["1", "1", "1", "1"]}}, "T": {"type": "DT_FLOAT"}, "explicit_paddings": {"list": {}}, "dilations": {"list": {"i": ["1", "1", "1", "1"]}}}}, {"name": "model_332/tf.compat.v1.transpose_3517/transpose", "op": "Transpose", "input": ["model_332/tf.nn.convolution_154/convolution", "model_332/tf.compat.v1.transpose_3517/transpose/perm"], "attr": {"Tperm": {"type": "DT_INT32"}, "_input_shapes": {"list": {"shape": [{"dim": [{"size": "1"}, {"size": "4"}, {"size": "21504"}, {"size": "1"}]}, {"dim": [{"size": "4"}]}]}}, "T": {"type": "DT_FLOAT"}}}, {"name": "model_332/tf.reshape_111/Reshape", "op": "Reshape", "input": ["model_332/tf.compat.v1.transpose_3517/transpose", "model_332/tf.reshape_111/Reshape/shape"], "attr": {"T": {"type": "DT_FLOAT"}, "Tshape": {"type": "DT_INT32"}}}, {"name": "model_332/tf.strided_slice_19/StridedSlice", "op": "StridedSlice", "input": ["model_332/tf.reshape_111/Reshape", "model_332/tf.strided_slice_19/ones_like/tensor", "model_332/tf.strided_slice_19/StridedSlice/end", "model_332/tf.strided_slice_19/ones_like"], "attr": {"shrink_axis_mask": {"i": "0"}, "new_axis_mask": {"i": "0"}, "Index": {"type": "DT_INT64"}, "begin_mask": {"i": "5"}, "T": {"type": "DT_FLOAT"}, "end_mask": {"i": "5"}, "ellipsis_mask": {"i": "0"}}}, {"name": "model_332/tf.strided_slice_18/StridedSlice", "op": "StridedSlice", "input": ["model_332/tf.reshape_111/Reshape", "model_332/tf.strided_slice_18/ones_like/tensor", "model_332/tf.strided_slice_18/StridedSlice/end", "model_332/tf.strided_slice_18/ones_like"], "attr": {"shrink_axis_mask": {"i": "0"}, "new_axis_mask": {"i": "0"}, "Index": {"type": "DT_INT64"}, "begin_mask": {"i": "7"}, "end_mask": {"i": "5"}, "T": {"type": "DT_FLOAT"}, "ellipsis_mask": {"i": "0"}}}, {"name": "model_332/tf.math.add_166/Add", "op": "AddV2", "input": ["model_332/tf.strided_slice_19/StridedSlice", "model_332/tf.math.add_166/Add/y"], "attr": {"T": {"type": "DT_FLOAT"}}}, {"name": "model_332/tf.math.subtract/Sub", "op": "Sub", "input": ["model_332/68246", "model_332/tf.strided_slice_18/StridedSlice"], "attr": {"T": {"type": "DT_FLOAT"}}}, {"name": "model_332/tf.math.add_167/Add", "op": "AddV2", "input": ["model_332/tf.math.subtract/Sub", "model_332/tf.math.add_166/Add"], "attr": {"T": {"type": "DT_FLOAT"}}}, {"name": "model_332/tf.math.subtract_1/Sub", "op": "Sub", "input": ["model_332/tf.math.add_166/Add", "model_332/tf.math.subtract/Sub"], "attr": {"T": {"type": "DT_FLOAT"}}}, {"name": "model_332/tf.math.divide/truediv", "op": "Mul", "input": ["model_332/tf.math.add_167/Add", "ConstantFolding/model_332/tf.math.divide/truediv_recip"], "attr": {"T": {"type": "DT_FLOAT"}}}, {"name": "model_332/tf.concat_1752/concat", "op": "ConcatV2", "input": ["model_332/tf.math.divide/truediv", "model_332/tf.math.subtract_1/Sub", "model_332/tf.concat_1752/concat/axis"], "attr": {"N": {"i": "2"}, "Tidx": {"type": "DT_INT32"}, "T": {"type": "DT_FLOAT"}}}, {"name": "model_332/tf.math.multiply_252/Mul", "op": "Mul", "input": ["model_332/tf.concat_1752/concat", "model_332/tf.math.multiply_252/Mul/y"], "attr": {"T": {"type": "DT_FLOAT"}}}, {"name": "model_332/output0/concat", "op": "ConcatV2", "input": ["model_332/tf.math.multiply_252/Mul", "model_332/tf.math.sigmoid_57/Sigmoid", "model_332/output0/concat/axis"], "attr": {"N": {"i": "2"}, "T": {"type": "DT_FLOAT"}, "Tidx": {"type": "DT_INT32"}}}, {"name": "Identity", "op": "Identity", "input": ["model_332/output0/concat"], "attr": {"T": {"type": "DT_FLOAT"}}}], "library": {}, "versions": {"producer": 2129}}, "weightsManifest": [{"paths": ["group1-shard1of3.bin", "group1-shard2of3.bin", "group1-shard3of3.bin"], "weights": [{"name": "ConstantFolding/model_332/tf.math.divide/truediv_recip", "shape": [], "dtype": "float32"}, {"name": "model_332/tf.strided_slice_19/ones_like/tensor", "shape": [3], "dtype": "int32"}, {"name": "model_332/tf.strided_slice_19/StridedSlice/end", "shape": [3], "dtype": "int32"}, {"name": "model_332/tf.strided_slice_19/ones_like", "shape": [3], "dtype": "int32"}, {"name": "model_332/tf.math.add_166/Add/y", "shape": [1, 2, 21504], "dtype": "float32"}, {"name": "model_332/68246", "shape": [1, 2, 21504], "dtype": "float32"}, {"name": "model_332/tf.strided_slice_16/StridedSlice/begin", "shape": [3], "dtype": "int32"}, {"name": "model_332/tf.strided_slice_16/StridedSlice/end", "shape": [3], "dtype": "int32"}, {"name": "model_332/tf.strided_slice_16/StridedSlice/strides", "shape": [3], "dtype": "int32"}, {"name": "model_332/tf.reshape_85/Reshape/shape", "shape": [4], "dtype": "int32"}, {"name": "model_332/tf.compat.v1.transpose_3511/transpose/perm", "shape": [4], "dtype": "int32"}, {"name": "model_332/tf.compat.v1.transpose_3512/transpose/perm", "shape": [4], "dtype": "int32"}, {"name": "model_332/tf.nn.convolution_154/convolution/filter", "shape": [1, 1, 16, 1], "dtype": "float32"}, {"name": "model_332/tf.compat.v1.transpose_3517/transpose/perm", "shape": [4], "dtype": "int32"}, {"name": "model_332/tf.reshape_111/Reshape/shape", "shape": [3], "dtype": "int32"}, {"name": "model_332/tf.strided_slice_18/ones_like/tensor", "shape": [3], "dtype": "int32"}, {"name": "model_332/tf.strided_slice_18/StridedSlice/end", "shape": [3], "dtype": "int32"}, {"name": "model_332/tf.strided_slice_18/ones_like", "shape": [3], "dtype": "int32"}, {"name": "model_332/tf.concat_1752/concat/axis", "shape": [], "dtype": "int32"}, {"name": "model_332/tf.math.multiply_252/Mul/y", "shape": [1, 1, 21504], "dtype": "float32"}, {"name": "model_332/tf.nn.convolution_85/convolution/filter", "shape": [3, 3, 64, 64], "dtype": "float32"}, {"name": "model_332/tf.math.add_97/Add/y", "shape": [64], "dtype": "float32"}, {"name": "model_332/tf.nn.convolution_87/convolution/filter", "shape": [3, 3, 64, 64], "dtype": "float32"}, {"name": "model_332/tf.math.add_99/Add/y", "shape": [64], "dtype": "float32"}, {"name": "model_332/tf.nn.convolution_90/convolution/filter", "shape": [1, 1, 64, 64], "dtype": "float32"}, {"name": "model_332/tf.math.add_102/Add/y", "shape": [64], "dtype": "float32"}, {"name": "model_332/tf.nn.convolution_86/convolution/filter", "shape": [3, 3, 64, 64], "dtype": "float32"}, {"name": "model_332/tf.math.add_98/Add/y", "shape": [64], "dtype": "float32"}, {"name": "model_332/tf.nn.convolution_88/convolution/filter", "shape": [3, 3, 64, 64], "dtype": "float32"}, {"name": "model_332/tf.math.add_100/Add/y", "shape": [64], "dtype": "float32"}, {"name": "model_332/tf.nn.convolution_91/convolution/filter", "shape": [1, 1, 64, 4], "dtype": "float32"}, {"name": "model_332/tf.math.add_103/Add/y", "shape": [4], "dtype": "float32"}, {"name": "model_332/tf.concat_1164/concat/axis", "shape": [], "dtype": "int32"}, {"name": "model_332/tf.compat.v1.transpose_2282/transpose/perm", "shape": [4], "dtype": "int32"}, {"name": "model_332/tf.reshape_25/Reshape/shape", "shape": [3], "dtype": "int32"}, {"name": "model_332/tf.nn.convolution_110/convolution/filter", "shape": [3, 3, 128, 64], "dtype": "float32"}, {"name": "model_332/tf.math.add_122/Add/y", "shape": [64], "dtype": "float32"}, {"name": "model_332/tf.nn.convolution_119/convolution/filter", "shape": [3, 3, 64, 64], "dtype": "float32"}, {"name": "model_332/tf.math.add_131/Add/y", "shape": [64], "dtype": "float32"}, {"name": "model_332/tf.nn.convolution_136/convolution/filter", "shape": [1, 1, 64, 64], "dtype": "float32"}, {"name": "model_332/tf.math.add_148/Add/y", "shape": [64], "dtype": "float32"}, {"name": "model_332/tf.nn.convolution_111/convolution/filter", "shape": [3, 3, 128, 64], "dtype": "float32"}, {"name": "model_332/tf.math.add_123/Add/y", "shape": [64], "dtype": "float32"}, {"name": "model_332/tf.nn.convolution_127/convolution/filter", "shape": [3, 3, 64, 64], "dtype": "float32"}, {"name": "model_332/tf.math.add_139/Add/y", "shape": [64], "dtype": "float32"}, {"name": "model_332/tf.nn.convolution_144/convolution/filter", "shape": [1, 1, 64, 4], "dtype": "float32"}, {"name": "model_332/tf.math.add_156/Add/y", "shape": [4], "dtype": "float32"}, {"name": "model_332/tf.concat_1744/concat/axis", "shape": [], "dtype": "int32"}, {"name": "model_332/tf.compat.v1.transpose_3441/transpose/perm", "shape": [4], "dtype": "int32"}, {"name": "model_332/tf.reshape_51/Reshape/shape", "shape": [3], "dtype": "int32"}, {"name": "model_332/tf.nn.convolution_148/convolution/filter", "shape": [3, 3, 256, 64], "dtype": "float32"}, {"name": "model_332/tf.math.add_160/Add/y", "shape": [64], "dtype": "float32"}, {"name": "model_332/tf.nn.convolution_150/convolution/filter", "shape": [3, 3, 64, 64], "dtype": "float32"}, {"name": "model_332/tf.math.add_162/Add/y", "shape": [64], "dtype": "float32"}, {"name": "model_332/tf.nn.convolution_152/convolution/filter", "shape": [1, 1, 64, 64], "dtype": "float32"}, {"name": "model_332/tf.math.add_164/Add/y", "shape": [64], "dtype": "float32"}, {"name": "model_332/tf.strided_slice_14/ones_like/tensor", "shape": [4], "dtype": "int32"}, {"name": "model_332/tf.strided_slice_14/StridedSlice/end", "shape": [4], "dtype": "int32"}, {"name": "model_332/tf.strided_slice_14/ones_like", "shape": [4], "dtype": "int32"}, {"name": "model_332/tf.strided_slice_12/ones_like/tensor", "shape": [4], "dtype": "int32"}, {"name": "model_332/tf.strided_slice_12/StridedSlice/end", "shape": [4], "dtype": "int32"}, {"name": "model_332/tf.strided_slice_12/ones_like", "shape": [4], "dtype": "int32"}, {"name": "model_332/tf.strided_slice_10/ones_like/tensor", "shape": [4], "dtype": "int32"}, {"name": "model_332/tf.strided_slice_10/StridedSlice/end", "shape": [4], "dtype": "int32"}, {"name": "model_332/tf.strided_slice_10/ones_like", "shape": [4], "dtype": "int32"}, {"name": "model_332/tf.image.resize_1/resize/size", "shape": [2], "dtype": "int32"}, {"name": "model_332/tf.concat_584/concat/axis", "shape": [], "dtype": "int32"}, {"name": "model_332/tf.nn.convolution_80/convolution/filter", "shape": [1, 1, 192, 64], "dtype": "float32"}, {"name": "model_332/tf.math.add_92/Add/y", "shape": [64], "dtype": "float32"}, {"name": "model_332/tf.strided_slice_11/ones_like/tensor", "shape": [4], "dtype": "int32"}, {"name": "model_332/tf.strided_slice_11/StridedSlice/end", "shape": [4], "dtype": "int32"}, {"name": "model_332/tf.strided_slice_11/ones_like", "shape": [4], "dtype": "int32"}, {"name": "model_332/tf.nn.convolution_81/convolution/filter", "shape": [3, 3, 32, 32], "dtype": "float32"}, {"name": "model_332/tf.math.add_93/Add/y", "shape": [32], "dtype": "float32"}, {"name": "model_332/tf.nn.convolution_82/convolution/filter", "shape": [3, 3, 32, 32], "dtype": "float32"}, {"name": "model_332/tf.math.add_94/Add/y", "shape": [32], "dtype": "float32"}, {"name": "model_332/tf.concat_585/concat/axis", "shape": [], "dtype": "int32"}, {"name": "model_332/tf.nn.convolution_83/convolution/filter", "shape": [1, 1, 96, 64], "dtype": "float32"}, {"name": "model_332/tf.math.add_95/Add/y", "shape": [64], "dtype": "float32"}, {"name": "model_332/tf.compat.v1.pad_5/Pad/paddings", "shape": [4, 2], "dtype": "int32"}, {"name": "model_332/tf.nn.convolution_84/convolution/filter", "shape": [3, 3, 64, 64], "dtype": "float32"}, {"name": "model_332/tf.math.add_96/Add/y", "shape": [64], "dtype": "float32"}, {"name": "model_332/tf.strided_slice_8/ones_like/tensor", "shape": [4], "dtype": "int32"}, {"name": "model_332/tf.strided_slice_8/StridedSlice/end", "shape": [4], "dtype": "int32"}, {"name": "model_332/tf.strided_slice_8/ones_like", "shape": [4], "dtype": "int32"}, {"name": "model_332/tf.image.resize/resize/size", "shape": [2], "dtype": "int32"}, {"name": "model_332/tf.concat_5/concat/axis", "shape": [], "dtype": "int32"}, {"name": "model_332/tf.nn.convolution_62/convolution/filter", "shape": [1, 1, 384, 128], "dtype": "float32"}, {"name": "model_332/tf.math.add_74/Add/y", "shape": [128], "dtype": "float32"}, {"name": "model_332/tf.strided_slice_9/ones_like/tensor", "shape": [4], "dtype": "int32"}, {"name": "model_332/tf.strided_slice_9/StridedSlice/end", "shape": [4], "dtype": "int32"}, {"name": "model_332/tf.strided_slice_9/ones_like", "shape": [4], "dtype": "int32"}, {"name": "model_332/tf.nn.convolution_70/convolution/filter", "shape": [3, 3, 64, 64], "dtype": "float32"}, {"name": "model_332/tf.math.add_82/Add/y", "shape": [64], "dtype": "float32"}, {"name": "model_332/tf.nn.convolution_78/convolution/filter", "shape": [3, 3, 64, 64], "dtype": "float32"}, {"name": "model_332/tf.math.add_90/Add/y", "shape": [64], "dtype": "float32"}, {"name": "model_332/tf.concat_6/concat/axis", "shape": [], "dtype": "int32"}, {"name": "model_332/tf.nn.convolution_79/convolution/filter", "shape": [1, 1, 192, 128], "dtype": "float32"}, {"name": "model_332/tf.math.add_91/Add/y", "shape": [128], "dtype": "float32"}, {"name": "model_332/tf.concat_1163/concat/axis", "shape": [], "dtype": "int32"}, {"name": "model_332/tf.nn.convolution_89/convolution/filter", "shape": [1, 1, 192, 128], "dtype": "float32"}, {"name": "model_332/tf.math.add_101/Add/y", "shape": [128], "dtype": "float32"}, {"name": "model_332/tf.strided_slice_13/ones_like/tensor", "shape": [4], "dtype": "int32"}, {"name": "model_332/tf.strided_slice_13/StridedSlice/end", "shape": [4], "dtype": "int32"}, {"name": "model_332/tf.strided_slice_13/ones_like", "shape": [4], "dtype": "int32"}, {"name": "model_332/tf.nn.convolution_99/convolution/filter", "shape": [3, 3, 64, 64], "dtype": "float32"}, {"name": "model_332/tf.math.add_111/Add/y", "shape": [64], "dtype": "float32"}, {"name": "model_332/tf.nn.convolution_107/convolution/filter", "shape": [3, 3, 64, 64], "dtype": "float32"}, {"name": "model_332/tf.math.add_119/Add/y", "shape": [64], "dtype": "float32"}, {"name": "model_332/tf.concat_1165/concat/axis", "shape": [], "dtype": "int32"}, {"name": "model_332/tf.nn.convolution_108/convolution/filter", "shape": [1, 1, 192, 128], "dtype": "float32"}, {"name": "model_332/tf.math.add_120/Add/y", "shape": [128], "dtype": "float32"}, {"name": "model_332/tf.compat.v1.pad_6/Pad/paddings", "shape": [4, 2], "dtype": "int32"}, {"name": "model_332/tf.nn.convolution_109/convolution/filter", "shape": [3, 3, 128, 128], "dtype": "float32"}, {"name": "model_332/tf.math.add_121/Add/y", "shape": [128], "dtype": "float32"}, {"name": "model_332/tf.strided_slice_6/ones_like/tensor", "shape": [4], "dtype": "int32"}, {"name": "model_332/tf.strided_slice_6/StridedSlice/end", "shape": [4], "dtype": "int32"}, {"name": "model_332/tf.strided_slice_6/ones_like", "shape": [4], "dtype": "int32"}, {"name": "model_332/tf.strided_slice_4/ones_like/tensor", "shape": [4], "dtype": "int32"}, {"name": "model_332/tf.strided_slice_4/StridedSlice/end", "shape": [4], "dtype": "int32"}, {"name": "model_332/tf.strided_slice_4/ones_like", "shape": [4], "dtype": "int32"}, {"name": "model_332/tf.strided_slice_2/ones_like/tensor", "shape": [4], "dtype": "int32"}, {"name": "model_332/tf.strided_slice_2/StridedSlice/end", "shape": [4], "dtype": "int32"}, {"name": "model_332/tf.strided_slice_2/ones_like", "shape": [4], "dtype": "int32"}, {"name": "model_332/tf.strided_slice/ones_like/tensor", "shape": [4], "dtype": "int32"}, {"name": "model_332/tf.strided_slice/StridedSlice/end", "shape": [4], "dtype": "int32"}, {"name": "model_332/tf.strided_slice/ones_like", "shape": [4], "dtype": "int32"}, {"name": "model_332/tf.compat.v1.pad/Pad/paddings", "shape": [4, 2], "dtype": "int32"}, {"name": "model_332/tf.nn.convolution/convolution/filter", "shape": [3, 3, 3, 16], "dtype": "float32"}, {"name": "model_332/tf.math.add/Add/y", "shape": [16], "dtype": "float32"}, {"name": "model_332/tf.compat.v1.pad_1/Pad/paddings", "shape": [4, 2], "dtype": "int32"}, {"name": "model_332/tf.nn.convolution_1/convolution/filter", "shape": [3, 3, 16, 32], "dtype": "float32"}, {"name": "model_332/tf.math.add_1/Add/y", "shape": [32], "dtype": "float32"}, {"name": "model_332/tf.nn.convolution_2/convolution/filter", "shape": [1, 1, 32, 32], "dtype": "float32"}, {"name": "model_332/tf.math.add_2/Add/y", "shape": [32], "dtype": "float32"}, {"name": "model_332/tf.strided_slice_1/ones_like/tensor", "shape": [4], "dtype": "int32"}, {"name": "model_332/tf.strided_slice_1/StridedSlice/end", "shape": [4], "dtype": "int32"}, {"name": "model_332/tf.strided_slice_1/ones_like", "shape": [4], "dtype": "int32"}, {"name": "model_332/tf.nn.convolution_3/convolution/filter", "shape": [3, 3, 16, 16], "dtype": "float32"}, {"name": "model_332/tf.math.add_3/Add/y", "shape": [16], "dtype": "float32"}, {"name": "model_332/tf.nn.convolution_4/convolution/filter", "shape": [3, 3, 16, 16], "dtype": "float32"}, {"name": "model_332/tf.math.add_4/Add/y", "shape": [16], "dtype": "float32"}, {"name": "model_332/tf.concat/concat/axis", "shape": [], "dtype": "int32"}, {"name": "model_332/tf.nn.convolution_5/convolution/filter", "shape": [1, 1, 48, 32], "dtype": "float32"}, {"name": "model_332/tf.math.add_7/Add/y", "shape": [32], "dtype": "float32"}, {"name": "model_332/tf.compat.v1.pad_2/Pad/paddings", "shape": [4, 2], "dtype": "int32"}, {"name": "model_332/tf.nn.convolution_6/convolution/filter", "shape": [3, 3, 32, 64], "dtype": "float32"}, {"name": "model_332/tf.math.add_8/Add/y", "shape": [64], "dtype": "float32"}, {"name": "model_332/tf.nn.convolution_7/convolution/filter", "shape": [1, 1, 64, 64], "dtype": "float32"}, {"name": "model_332/tf.math.add_9/Add/y", "shape": [64], "dtype": "float32"}, {"name": "model_332/tf.strided_slice_3/ones_like/tensor", "shape": [4], "dtype": "int32"}, {"name": "model_332/tf.strided_slice_3/StridedSlice/end", "shape": [4], "dtype": "int32"}, {"name": "model_332/tf.strided_slice_3/ones_like", "shape": [4], "dtype": "int32"}, {"name": "model_332/tf.nn.convolution_8/convolution/filter", "shape": [3, 3, 32, 32], "dtype": "float32"}, {"name": "model_332/tf.math.add_10/Add/y", "shape": [32], "dtype": "float32"}, {"name": "model_332/tf.nn.convolution_9/convolution/filter", "shape": [3, 3, 32, 32], "dtype": "float32"}, {"name": "model_332/tf.math.add_11/Add/y", "shape": [32], "dtype": "float32"}, {"name": "model_332/tf.nn.convolution_10/convolution/filter", "shape": [3, 3, 32, 32], "dtype": "float32"}, {"name": "model_332/tf.math.add_14/Add/y", "shape": [32], "dtype": "float32"}, {"name": "model_332/tf.nn.convolution_11/convolution/filter", "shape": [3, 3, 32, 32], "dtype": "float32"}, {"name": "model_332/tf.math.add_15/Add/y", "shape": [32], "dtype": "float32"}, {"name": "model_332/tf.concat_1/concat/axis", "shape": [], "dtype": "int32"}, {"name": "model_332/tf.nn.convolution_19/convolution/filter", "shape": [1, 1, 128, 64], "dtype": "float32"}, {"name": "model_332/tf.math.add_25/Add/y", "shape": [64], "dtype": "float32"}, {"name": "model_332/tf.compat.v1.pad_3/Pad/paddings", "shape": [4, 2], "dtype": "int32"}, {"name": "model_332/tf.nn.convolution_20/convolution/filter", "shape": [3, 3, 64, 128], "dtype": "float32"}, {"name": "model_332/tf.math.add_26/Add/y", "shape": [128], "dtype": "float32"}, {"name": "model_332/tf.nn.convolution_21/convolution/filter", "shape": [1, 1, 128, 128], "dtype": "float32"}, {"name": "model_332/tf.math.add_27/Add/y", "shape": [128], "dtype": "float32"}, {"name": "model_332/tf.strided_slice_5/ones_like/tensor", "shape": [4], "dtype": "int32"}, {"name": "model_332/tf.strided_slice_5/StridedSlice/end", "shape": [4], "dtype": "int32"}, {"name": "model_332/tf.strided_slice_5/ones_like", "shape": [4], "dtype": "int32"}, {"name": "model_332/tf.nn.convolution_29/convolution/filter", "shape": [3, 3, 64, 64], "dtype": "float32"}, {"name": "model_332/tf.math.add_35/Add/y", "shape": [64], "dtype": "float32"}, {"name": "model_332/tf.nn.convolution_37/convolution/filter", "shape": [3, 3, 64, 64], "dtype": "float32"}, {"name": "model_332/tf.math.add_43/Add/y", "shape": [64], "dtype": "float32"}, {"name": "model_332/tf.nn.convolution_45/convolution/filter", "shape": [3, 3, 64, 64], "dtype": "float32"}, {"name": "model_332/tf.math.add_53/Add/y", "shape": [64], "dtype": "float32"}, {"name": "model_332/tf.nn.convolution_53/convolution/filter", "shape": [3, 3, 64, 64], "dtype": "float32"}, {"name": "model_332/tf.math.add_61/Add/y", "shape": [64], "dtype": "float32"}, {"name": "model_332/tf.concat_2/concat/axis", "shape": [], "dtype": "int32"}, {"name": "model_332/tf.nn.convolution_54/convolution/filter", "shape": [1, 1, 256, 128], "dtype": "float32"}, {"name": "model_332/tf.math.add_64/Add/y", "shape": [128], "dtype": "float32"}, {"name": "model_332/tf.compat.v1.pad_4/Pad/paddings", "shape": [4, 2], "dtype": "int32"}, {"name": "model_332/tf.nn.convolution_55/convolution/filter", "shape": [3, 3, 128, 256], "dtype": "float32"}, {"name": "model_332/tf.math.add_65/Add/y", "shape": [256], "dtype": "float32"}, {"name": "model_332/tf.nn.convolution_56/convolution/filter", "shape": [1, 1, 256, 256], "dtype": "float32"}, {"name": "model_332/tf.math.add_66/Add/y", "shape": [256], "dtype": "float32"}, {"name": "model_332/tf.strided_slice_7/ones_like/tensor", "shape": [4], "dtype": "int32"}, {"name": "model_332/tf.strided_slice_7/StridedSlice/end", "shape": [4], "dtype": "int32"}, {"name": "model_332/tf.strided_slice_7/ones_like", "shape": [4], "dtype": "int32"}, {"name": "model_332/tf.nn.convolution_57/convolution/filter", "shape": [3, 3, 128, 128], "dtype": "float32"}, {"name": "model_332/tf.math.add_67/Add/y", "shape": [128], "dtype": "float32"}, {"name": "model_332/tf.nn.convolution_58/convolution/filter", "shape": [3, 3, 128, 128], "dtype": "float32"}, {"name": "model_332/tf.math.add_68/Add/y", "shape": [128], "dtype": "float32"}, {"name": "model_332/tf.concat_3/concat/axis", "shape": [], "dtype": "int32"}, {"name": "model_332/tf.nn.convolution_59/convolution/filter", "shape": [1, 1, 384, 256], "dtype": "float32"}, {"name": "model_332/tf.math.add_71/Add/y", "shape": [256], "dtype": "float32"}, {"name": "model_332/tf.nn.convolution_60/convolution/filter", "shape": [1, 1, 256, 128], "dtype": "float32"}, {"name": "model_332/tf.math.add_72/Add/y", "shape": [128], "dtype": "float32"}, {"name": "model_332/tf.concat_4/concat/axis", "shape": [], "dtype": "int32"}, {"name": "model_332/tf.nn.convolution_61/convolution/filter", "shape": [1, 1, 512, 256], "dtype": "float32"}, {"name": "model_332/tf.math.add_73/Add/y", "shape": [256], "dtype": "float32"}, {"name": "model_332/tf.concat_1166/concat/axis", "shape": [], "dtype": "int32"}, {"name": "model_332/tf.nn.convolution_128/convolution/filter", "shape": [1, 1, 384, 256], "dtype": "float32"}, {"name": "model_332/tf.math.add_140/Add/y", "shape": [256], "dtype": "float32"}, {"name": "model_332/tf.strided_slice_15/ones_like/tensor", "shape": [4], "dtype": "int32"}, {"name": "model_332/tf.strided_slice_15/StridedSlice/end", "shape": [4], "dtype": "int32"}, {"name": "model_332/tf.strided_slice_15/ones_like", "shape": [4], "dtype": "int32"}, {"name": "model_332/tf.nn.convolution_145/convolution/filter", "shape": [3, 3, 128, 128], "dtype": "float32"}, {"name": "model_332/tf.math.add_157/Add/y", "shape": [128], "dtype": "float32"}, {"name": "model_332/tf.nn.convolution_146/convolution/filter", "shape": [3, 3, 128, 128], "dtype": "float32"}, {"name": "model_332/tf.math.add_158/Add/y", "shape": [128], "dtype": "float32"}, {"name": "model_332/tf.concat_1745/concat/axis", "shape": [], "dtype": "int32"}, {"name": "model_332/tf.nn.convolution_147/convolution/filter", "shape": [1, 1, 384, 256], "dtype": "float32"}, {"name": "model_332/tf.math.add_159/Add/y", "shape": [256], "dtype": "float32"}, {"name": "model_332/tf.nn.convolution_149/convolution/filter", "shape": [3, 3, 256, 64], "dtype": "float32"}, {"name": "model_332/tf.math.add_161/Add/y", "shape": [64], "dtype": "float32"}, {"name": "model_332/tf.nn.convolution_151/convolution/filter", "shape": [3, 3, 64, 64], "dtype": "float32"}, {"name": "model_332/tf.math.add_163/Add/y", "shape": [64], "dtype": "float32"}, {"name": "model_332/tf.nn.convolution_153/convolution/filter", "shape": [1, 1, 64, 4], "dtype": "float32"}, {"name": "model_332/tf.math.add_165/Add/y", "shape": [4], "dtype": "float32"}, {"name": "model_332/tf.concat_1746/concat/axis", "shape": [], "dtype": "int32"}, {"name": "model_332/tf.compat.v1.transpose_3476/transpose/perm", "shape": [4], "dtype": "int32"}, {"name": "model_332/tf.reshape_77/Reshape/shape", "shape": [3], "dtype": "int32"}, {"name": "model_332/tf.concat_1747/concat/axis", "shape": [], "dtype": "int32"}, {"name": "model_332/tf.strided_slice_17/StridedSlice/begin", "shape": [3], "dtype": "int32"}, {"name": "model_332/tf.strided_slice_17/StridedSlice/end", "shape": [3], "dtype": "int32"}, {"name": "model_332/tf.strided_slice_17/StridedSlice/strides", "shape": [3], "dtype": "int32"}, {"name": "model_332/output0/concat/axis", "shape": [], "dtype": "int32"}]}]}